best_f1_discriminator.pth (torch, 421831 bytes, 30 tensors)

conv1.weight f4 [16, 3, 4, 4]
00000000: 2834 5c3c 9ec8 4bbc bc1a 47bc 5e04 55bc
00000010: 85a8 c9bb d7f8 5cbc 428c 49bc 99f7 46bc
00000020: 62e5 28bc 8a16 3dbc df70 3dbc fae9 39bc
00000030: 855f 21bc 8dae 2abc 99a6 3fbc ec43 8bbc
00000040: 03d4 5b3c 7f4b 49bc 33a6 47bc dad9 55bc
00000050: db70 babb a6aa 45bc 12db 58bc bc1c 3fbc
00000060: 431f 2bbc 5c57 34bc a69d 48bc 3cd1 3fbc
00000070: 4627 1fbc e916 33bc ddfc 36bc 0e14 8cbc
00000080: 0039 5b3c a09d 44bc cad1 48bc 3f84 55bc
00000090: bd99 ccbb a895 44bc cb40 23bc 111c 5cbc
000000a0: 6c7c 28bc 6922 3bbc b52f 3ebc bb3c 43bc
000000b0: 4942 17bc 0a81 34bc e1ce 36bc 86eb 09bc
000000c0: 8355 c43c 5160 a139 6682 5bbc 6edc 34bc
000000d0: 293c ba3c fb43 d8bb 0c12 67bc 67fd 30bc
000000e0: ddc4 a2b8 599e 69bc 7a47 72bc 824f 26bc
000000f0: d4af d8ba 19aa 98bb 4f9a 6ebc 9e79 20bc
00000100: 8570 c33c 5e49 8a39 0d7f 5bbc c0c2 34bc
00000110: 3f01 ab3c 6feb f6bb f066 67bc 2e49 31bc
00000120: f5d5 bbba e8f1 6dbc 1bd0 72bc beea 26bc
00000130: 29d6 e0ba 322c 8ebb 4389 6fbc a4b1 20bc
00000140: 0156 c23c 51e2 8439 9467 5bbc 7bcf 34bc
00000150: 10a6 b63c a887 e8bb e311 66bc 17c1 31bc
00000160: d1a0 5d39 060f 6bbc 6d18 73bc 28a9 26bc
00000170: 135e ffba 70d1 9fbb aae4 6fbc bb64 20bc
00000180: 6dff bf3b 92fb e4bb 442a fdba 927e 34bc
00000190: 778b b13a ac25 6abc f057 eaba 139f 08bc
000001a0: 7316 9639 dc72 8fbc f34d 71bc 5b5b 71bc
000001b0: b2de 52bc 29c6 5ebc 5668 53bc 59ea bbba
000001c0: 1417 343b 813f d9bb ed10 e4ba 864b b1bb
000001d0: 7cd2 a83a 709c 5dbc 9558 deba c310 a6bc
000001e0: c95c fa39 3ea5 90bc b61e 71bc 1a6f 74bc
000001f0: 2963 4dbc 1f8e 61bc be7e 55bc 7083 63bc
00000200: a94e 843b d586 e1bb af75 f7ba b856 13bc
00000210: 6d6b b03a 08e2 71bc 891b edba f12b 9abc
00000220: 9620 fdb9 e55c 8abc 6e34 6fbc 8b90 64bc
00000230: bcd6 54bc f572 5ebc 67aa 56bc 0d78 aabc
00000240: be2d f5bc 2c1a 24bc 2e6c 83bc 9fa9 75bb
00000250: 10e3 55bd 9fb0 6e3c 346c 54bc 0ee4 8dbc
00000260: 856c 96b8 43a0 2d3c d1fd 3cbc d8a0 c1bb
00000270: e778 1c3b 0449 a33c b9f6 263a 78dc c83a
00000280: 317b a8bc 287d 0abd d295 8f3b 5ae4 babb
00000290: e8b0 80bc 98e2 333b 2152 b4bc d8d0 98bb
000002a0: fcff 063c 8b08 65bc 7eb3 e4ba ba70 16bc
000002b0: 19cd 4c3c 9fcc 903c 6998 73bc 5c94 39bc
000002c0: 54d3 f2bc ba9b 503c 488e 2abc 9dba c3ba
000002d0: 5efb 1bbd 0fb9 693c fd23 2fbc 657d eeba
000002e0: 974a 88bb d03f 27bc ac29 b1bb c1c2 15bc
000002f0: 9af0 91bc e140 953b 3edc 163b 0cdc d9bb
00000300: d816 943c 5f50 f0bb 5f62 1dbb 2f27 38bc
00000310: 4fde 7f3c a496 43bc b895 31bc fc79 5cbc
00000320: a833 eb3b 265d a4bc dc36 dabc 0aac 75bc
00000330: dfdc f5bb 5435 40bc 0949 80bc 4160 68bc
00000340: a626 8b3c 5dd9 84bb c0e5 13bb 922c 32bc
00000350: ab3a 453c 77dc 8bbc 2420 0abc 3711 bdbc
00000360: c13c 063c 5aa7 63bc 3e43 69bc a463 9fbc
00000370: 5160 cebb e55b 3ebc 9789 94bc 393b 9abc
00000380: 6bdd 9a3c a805 a3ba ee39 0abb 21c5 2fbc
00000390: f485 733c edd1 5ebc f966 38bc 90e3 43bc
000003a0: 85bf e5bb f80e 65bb 1b5c 84bc 194e 88bc
000003b0: be7f 55bb 9276 99bc b265 8cbc 9e7b 39bc
000003c0: e73d 723c c85d 613c ca38 613c 8b5c 4a3c
000003d0: 7738 b93c c0b0 513c 1016 32ba 694a 753b
000003e0: a387 c53c a432 c5bb f5bb 00bc f150 c5b9
000003f0: ddff 793c 2c8a 8a3b 651f b6bb 0dd7 983b
0.013440169 -0.012437968 -0.01215237 -0.0130015295 -0.0061541223 -0.013487062 -0.0123015065 -0.012143993
-0.010308595 -0.011541018 -0.011562555 -0.011347288 -0.009849434 -0.010417593 -0.011697435 -0.017000161
0.013417247 -0.012286066 -0.012185621 -0.013052428 -0.005689723 -0.012064612 -0.013235824 -0.011664566
-0.010444465 -0.011007156 -0.012244618 -0.0117076 -0.009713953 -0.010930755 -0.011168686 -0.017099407
0.013380289 -0.012000471 -0.012257049 -0.013032018 -0.006243913 -0.011998571 -0.009964178 -0.013434426
-0.010283571 -0.011421778 -0.011608054 -0.011916335 -0.009232112 -0.011017093 -0.011157722 -0.00841797
0.023966556 0.00030780074 -0.013397789 -0.011038883 0.022733765 -0.006599901 -0.014103424 -0.010802603
-7.7614306e-05 -0.014258944 -0.014787549 -0.010150792 -0.0016531893 -0.004658949 -0.014563157 -0.009794621
0.023857364 0.00026376074 -0.0133969905 -0.01103276 0.020874618 -0.00753539 -0.014123663 -0.01082067
-0.0014330732 -0.014523007 -0.014820124 -0.010187803 -0.0017153668 -0.0043387646 -0.014620128 -0.009807978
0.02372265 0.0002534562 -0.013391394 -0.011035795 0.022295982 -0.0070962496 -0.01404235 -0.010849259
0.00021136111 -0.014346844 -0.0148373665 -0.010172166 -0.0019482992 -0.004877262 -0.01464192 -0.009789641
0.0058593065 -0.0069879973 -0.0019314964 -0.011016505 0.0013545592 -0.014291208 -0.0017878991 -0.0083387075
0.00028626955 -0.017510824 -0.014728057 -0.0147312535 -0.0128704775 -0.01359705 -0.012903294 -0.0014336809
0.0027479576 -0.0066298847 -0.0017400064 -0.0054106144 0.0012880112 -0.013526067 -0.0016963655 -0.020271664
0.00047752846 -0.017656919 -0.014716795 -0.014919067 -0.012535849 -0.013766794 -0.013030706 -0.013886318
0.0040376973 -0.0068825283 -0.0018879677 -0.008992843 0.001345975 -0.014763363 -0.0018089871 -0.018819781
-0.000482802 -0.016889999 -0.014599903 -0.013950477 -0.01299065 -0.013577213 -0.0131021505 -0.020809198
-0.029929038 -0.0100160055 -0.016042795 -0.0037485135 -0.052218497 0.014568477 -0.012965251 -0.017320659
-7.172771e-05 0.010597291 -0.011535124 -0.0059090666 0.0023875774 0.019932278 0.0006369162 0.0015324494
-0.020566555 -0.033810765 0.0043818736 -0.005703491 -0.015709355 0.0027448293 -0.022011818 -0.004663568
0.008239742 -0.013979088 -0.0017448512 -0.00918215 0.012500071 0.017675696 -0.01486788 -0.011326876
-0.029641785 0.012732441 -0.010409899 -0.0014932934 -0.03808152 0.014265313 -0.010689733 -0.001819533
-0.0041592824 -0.010208085 -0.005406579 -0.009140671 -0.017814923 0.0045548533 0.0023019458 -0.006648546
0.018077299 -0.0073337997 -0.0024014933 -0.011239811 0.015616967 -0.011937771 -0.010838918 -0.013456818
0.0071777888 -0.020063948 -0.026637487 -0.014994631 -0.0075031365 -0.011731464 -0.015659826 -0.014183105
0.016986202 -0.004054232 -0.0022567362 -0.010874884 0.012037913 -0.0170729 -0.0084305145 -0.023079498
0.008193196 -0.01389488 -0.014237223 -0.019456692 -0.006298103 -0.011618589 -0.018132014 -0.018827068
0.018904408 -0.0012437599 -0.0021091658 -0.010728152 0.01486348 -0.013599855 -0.011255019 -0.011956111
-0.0070113563 -0.003495155 -0.0161572 -0.016638802 -0.003257736 -0.018733297 -0.017138336 -0.011320977
0.0147852665 0.013755269 0.01374645 0.0123511655 0.022609932 0.012798488 -0.00067934487 0.0037428385
0.024112528 -0.0060179997 -0.007857312 -0.00037635074 0.0152587565 0.004227897 -0.0055579417 0.004664308

conv1.bias f4 [16]
00000000: f8e3 ed34 7602 7533 e3d2 2fb5 b8a7 c8b3
00000010: 5cfe 0db4 b59e 36b4 6f6f 2cb4 c847 0933
00000020: 7d54 e234 1eee b430 0996 a333 5378 b833
00000030: 9764 8d33 21c3 bdb3 1208 28b6 4c1a e332
4.431056e-07 5.7045746e-08 -6.549946e-07 -9.3437336e-08 -1.3224184e-07 -1.7007808e-07 -1.6059288e-07 3.1963083e-08
4.2157254e-07 1.3164401e-09 7.61757e-08 8.5900545e-08 6.584121e-08 -8.836492e-08 -2.5038648e-06 2.6438236e-08

bn1.weight f4 [16]
00000000: 20da b63d 1902 963d 2440 533e 126f 5b3e
00000010: e8e5 133e 7560 ef3d 7eb0 bc3d 5216 ae3d
00000020: 3981 f73d 8cb0 273e fb03 fc3d 5ead 403e
00000030: fd96 aa3d a8e5 a23d 91a0 503e fe0a 8e3d
0.08928323 0.07324619 0.20629936 0.21429089 0.14443171 0.116883196 0.09213351 0.08500351
0.12085194 0.16375941 0.12305447 0.18816134 0.0832958 0.0795396 0.20373751 0.0693569

bn1.bias f4 [16]
00000000: 9dcd 4abc 30a4 07bc d7aa 913c b521 2dbc
00000010: 85bc 38bc 7e50 ae3c 80a1 0f3a d1e5 573c
00000020: e12e ad3c 53d8 aebb 85f4 a53c 7b0f 80bb
00000030: 5a27 983b 6175 9d3b d683 2cbb 8707 373c
-0.012378124 -0.008278891 0.017781658 -0.010567118 -0.011275415 0.021278616 0.00054790825 0.013177351
0.021140518 -0.0053358465 0.020258198 -0.0039080954 0.004643363 0.0048052524 -0.0026323698 0.011171228

bn1.running_mean f4 [16]
00000000: 10a1 dbbd b749 63bd 7d86 c4bd 65a0 98bd
00000010: f3c8 aabd 8ae3 af3d 88ef 00be 93a8 f4bb
00000020: cd61 b43d a937 b2bc 4586 01be 0d3b f33c
00000030: 7055 40bd 7028 36bc dbc9 ecbd 2b2d 5dbc
-0.107240796 -0.05549022 -0.09595964 -0.07452468 -0.08339109 0.085883215 -0.12591374 -0.0074663847
0.088077165 -0.021755056 -0.12648876 0.029691244 -0.04695648 -0.0111180395 -0.115619384 -0.013499538

bn1.running_var f4 [16]
00000000: 08ee 563c 95aa e43b ed9c 313c 4b6b d43b
00000010: 08a1 343c 6924 103c 9a72 873c b3d6 033b
00000020: 3b67 273c 16e1 843b 9a76 863c 9a12 8a3b
00000030: ed63 b03b e875 673b e733 6c3c 0de1 a33b
0.0131182745 0.006978343 0.010840637 0.006482517 0.011024721 0.008797743 0.016534138 0.0020116984
0.010217483 0.0040551526 0.016413976 0.0042136433 0.005383006 0.003531808 0.014416671 0.0050011934

conv2.weight f4 [32, 16, 4, 4]
00000000: 6c0f 1c3c 817f 56bc f942 0a3c 22d5 2d3c
00000010: bd23 a03b ff01 5fbc c31a 6dbc ed32 40bc
00000020: 306e 173c 3694 53bc 1243 34bc b472 c4bb
00000030: 53a9 ce3b b2f1 52bc 7127 1ebc f3ce 0fbc
00000040: 9dc1 253c 51c5 2ebc 5752 353c d8ba 383c
00000050: e427 2a3c 8db2 e13b 5ab0 393c 9ec2 3f3c
00000060: b953 2a3c 55aa 67ba 6a3e 3b3c 00e7 2f3c
00000070: 4325 373c 861a 78ba 3f7b 3f3c 27f3 143c
00000080: e1ea d5bb 2ed3 71bc 1c8c 64bc 2cb2 4cbc
00000090: 34fb 75bc 2f6f 7dbc 3e61 68bc 4b3b 59bc
000000a0: 867c 76bc a2a8 67bc 6f8b 54bc 87ba 47bc
000000b0: 7068 fdbb cbaf 3ebb ea4b 173c f186 5cbb
000000c0: a2e2 7d3c fdb0 2e3c 687f 3f3c 1191 163c
000000d0: 1fa0 3bbc 48d1 183c 3299 6dbc 6694 6dbc
000000e0: 55c2 31bc afd2 023c dbbe 72bc d6bc 47bc
000000f0: 60f0 35bc 6cc7 0f3b 5a45 4cbc f7d4 e0ba
00000100: 37bf 213c 8ffa 4cbc 4249 373c 6a86 07bc
00000110: e942 253c f665 50bc 6c9d 423c 9cde 3d3c
00000120: cd6e 2b3c c1b5 54bc eb72 3a3c 88e7 25bc
00000130: f6b0 3d3c 8586 3dbc 20e1 383c e39e 28bc
00000140: a7d7 0cba fb81 49bc 5e7a 353c f344 363c
00000150: 7d73 423c eb1f 3e3c baaf 483c 0937 4f3c
00000160: 918a 503c a74d dd3b 7280 6e3c 032e 243c
00000170: 8789 4c3c 23c0 363c 7f3f 483c c764 173c
00000180: 3bf4 8a3b 2dd3 5dbc 2972 f83a 496e 063c
00000190: 8738 023c 89a0 81bc c322 f63b ce7b 1e3c
000001a0: afde 053c e1ba 77bc 0b0a eb3b 87cf 2d3c
000001b0: 5f5b 283c 844e 04bc 1845 2b3c 488b edbb
000001c0: 26a3 153c 7e0c 44bc b4c7 3a3c 1916 513c
000001d0: 518a 2e3c b797 41bc d8d2 4e3c 7cc1 4f3c
000001e0: 2d22 393c c4b3 29bc 5e18 583c 09e4 4a3c
000001f0: 4a9f 4d3c 2057 0ebc fda2 513c e1e2 84bb
00000200: 4bf9 213c 11bc 3f3c 89cb 3b3c 270a 463c
00000210: 644a 413c e9c1 423c c128 533c dfdc 5a3c
00000220: 447b 323c 86af 483c 4b15 493c b289 443c
00000230: 3aee 533c 2b2b 303b c747 4b3c 2606 e13b
00000240: ed19 4dbc de7a 593c 03c9 40bc 71a7 5c3c
00000250: 366b 3a3c e164 30bc c1ac 2bbc 4b8f 583c
00000260: 1372 293c 91ac 593c f647 39bc b8ec 533c
00000270: f559 423c dc95 5c3c 99ae 29bc 5994 f93b
00000280: 789d e23a abf0 77bb 9cd8 26bc 542d 4abc
00000290: 5658 45bc 420a 60bc 54db 5fbc b973 51bc
000002a0: a125 41bc c256 5bbc 4c15 50bc b6cf 56bc
000002b0: 1d6d 03bc 9bd6 86bb 4cb9 973b 9a51 1cbb
000002c0: dff8 25bc 46e7 4c3c 0f85 31bc 330c 3d3c
000002d0: 9a94 19bc cb79 453c e165 37bc 7bf5 2c3c
000002e0: c8ee 28bc 2e34 393c cd93 51bc 95e1 d63b
000002f0: 7c28 3ebc f927 2a3c 66fa 47bc 7384 293c
00000300: 5e8b a53b f58c 52bc 5ceb f2bb 85e8 383c
00000310: 02b0 323c 533b 65bc 0d66 2c3c 5023 343c
00000320: ce3f c73b 97c1 5bbc 9880 c7bb c2a0 f7bb
00000330: e742 353c 1098 40bc d05e 0c3c 3808 1bbb
00000340: 347e 6d3c 9986 513c 2e08 493c 79ad 3d3c
00000350: da4d 573c 747a 343c 862d 263c c463 213c
00000360: 92f4 403c 997d 1d3c 20e9 363c c4a4 2c3c
00000370: 05d8 a13b 91d1 58bc ae82 023c c9f8 cfbb
00000380: aa59 acb8 17f3 65bc a27c 58bc 210d 20bc
00000390: 6fa6 fe3b e142 6fbc fd9d 64bc 9294 3c3c
000003a0: 0da6 223c d203 ce3b 84c5 3f3c cd90 4c3c
000003b0: e98d 303c ff84 083c cdd4 233c 4ea5 dcbb
000003c0: 6ffd 443c 65b1 4e3c a4db 463c 7929 643c
000003d0: cb2b 403c 300c 3e3c 7611 383c c447 0c3c
000003e0: efde 373c bc15 2f3c 4cf2 313c fd21 0c3c
000003f0: 1511 223c c74c 5ebc c80c ff3b 9307 24ba
0.009525161 -0.013091923 0.008438819 0.010609897 0.004887073 -0.013611316 -0.0144717125 -0.011730892
0.009242579 -0.012913754 -0.011002319 -0.005995119 0.006306806 -0.012875007 -0.009652958 -0.008777368
0.010116962 -0.010667161 0.011066995 0.011275016 0.010385487 0.00688774 0.011333549 0.011704115
0.010395938 -0.0008837332 0.011428455 0.010736227 0.0111783175 -0.00094644015 0.011687099 0.009091175
-0.006528244 -0.014759822 -0.01394942 -0.012493651 -0.015013505 -0.015468403 -0.014183341 -0.013258765
-0.015044337 -0.014139326 -0.012972697 -0.012190468 -0.007733397 -0.002909648 0.009234408 -0.0033649767
0.015495928 0.0106623145 0.011688091 0.00918986 -0.01145175 0.00932724 -0.014501857 -0.014500713
-0.010849555 0.007984801 -0.014816011 -0.012191018 -0.011104673 0.0021938933 -0.012467707 -0.0017153312
0.009872249 -0.01251091 0.0111869 -0.008271793 0.010086753 -0.012719622 0.011878353 0.011588719
0.010463429 -0.012982787 0.011379938 -0.010126002 0.011577835 -0.0115677165 0.011284143 -0.010291788
-0.0005372711 -0.012299056 0.011076538 0.011124837 0.011868355 0.0116042895 0.012248928 0.012647399
0.012728349 0.0067536416 0.014556991 0.010020736 0.012483961 0.011154207 0.01222217 0.009240336
0.0042405403 -0.013539118 0.0018954921 0.008205005 0.0079480475 -0.01582362 0.007511468 0.009673072
0.008170768 -0.015120239 0.007172828 0.01060856 0.010275691 -0.00807536 0.010453485 -0.0072492696
0.009133136 -0.011965869 0.011400152 0.012761616 0.010653094 -0.011815957 0.012623511 0.012680408
0.011299652 -0.010357801 0.013189403 0.012383469 0.0125501845 -0.008687764 0.012795207 -0.0040553664
0.009886096 0.011702553 0.011462101 0.012087381 0.011797521 0.011887052 0.012888134 0.013358324
0.010893647 0.012248879 0.012273143 0.01199572 0.012935216 0.00268812 0.01240725 0.006867188
-0.012518388 0.013273923 -0.011766675 0.0134676555 0.0113781 -0.010766239 -0.010478199 0.013217757
0.010342139 0.013285772 -0.011308661 0.012934856 0.011862268 0.013463464 -0.010356569 0.0076165614
0.0017289361 -0.0037832658 -0.01018348 -0.012339909 -0.012044987 -0.013674321 -0.013663132 -0.012783938
-0.011788757 -0.013387384 -0.01270039 -0.013111046 -0.00802162 -0.0041149384 0.0046302434 -0.002385235
-0.010130136 0.012506312 -0.010834946 0.011538553 -0.009373808 0.0120529635 -0.011193723 0.010556574
-0.010310836 0.0113039445 -0.012791586 0.006557653 -0.011606332 0.010385507 -0.012205696 0.01034652
0.0050520143 -0.01285099 -0.007413311 0.011285906 0.010906221 -0.013991195 0.010522378 0.010994747
0.006080604 -0.013412855 -0.0060883276 -0.0075570056 0.011063314 -0.0117550045 0.008567527 -0.0023656022
0.014495421 0.012788438 0.012270017 0.011577004 0.01314112 0.011015523 0.01014269 0.009850446
0.01177706 0.009612464 0.01116398 0.01053733 0.0049390816 -0.013233558 0.007965727 -0.006346796
-8.2183e-05 -0.014035008 -0.0132133085 -0.009768755 0.0077713053 -0.0146033475 -0.013953683 0.011510031
0.009927285 0.0062870765 0.011704806 0.012485695 0.0107760215 0.00833249 0.009999466 -0.006733573
0.012023314 0.012615536 0.012137327 0.0139259035 0.011729191 0.011599585 0.011234632 0.008562032
0.011222585 0.010686334 0.010860991 0.008553025 0.009891768 -0.01356811 0.007783506 -0.0006257232

conv2.bias f4 [32]
00000000: d3cb efb4 7b7f 0635 1d05 c634 2fb0 f2b3
00000010: b523 c235 5d08 d9b5 dddd c2b5 9d46 7533
00000020: 7fb4 0b35 732b f6b5 694d 80b5 6181 45b4
00000030: d039 56b1 3c77 9836 aaf9 1334 e37d c6b4
00000040: e3cb 6eb4 3efe 80b5 6bca 4433 14fa e735
00000050: ed13 f6b3 e9e8 d335 715b a035 0eaa d2b5
00000060: b3f3 d333 ea9a 5fb3 347f 9734 cefb d535
00000070: 17f9 c935 463a c831 0d13 4eb4 94da b9b5
-4.466552e-07 5.01044e-07 3.6884094e-07 -1.1301051e-07 1.4464518e-06 -1.6170194e-06 -1.4518697e-06 5.710773e-08
5.204419e-07 -1.8341074e-06 -9.559272e-07 -1.8394122e-07 -3.1173961e-09 4.5438337e-06 1.3781269e-07 -3.697197e-07
-2.2239651e-07 -9.610737e-07 4.5818904e-08 1.7283623e-06 -1.1458892e-07 1.5788511e-06 1.1947542e-06 -1.5695712e-06
9.869782e-08 -5.2062127e-08 2.8218494e-07 1.5943021e-06 1.5048162e-06 5.827391e-09 -1.9192176e-07 -1.3847189e-06

bn2.weight f4 [32]
00000000: 2734 d73d 52cf aa3d a85f 973d 3ac3 8e3d
00000010: a481 c93d c2f4 b33d 98c4 d93d 1d79 a93d
00000020: 53b6 bc3d 8632 ca3d 099f b63d 5bd8 c83d
00000030: f562 8e3d 4e5d 033e 9aad 903d cea4 953d
00000040: 87db 1f3e 8243 ff3d f0e9 af3d 517b b13d
00000050: ee3e 953d cb49 113e e1d6 c33d 5412 153e
00000060: f8b3 c93d 95ff ad3d 74d4 cf3d 737f 353e
00000070: 835a 043e 9274 b83d 682c f93d b1a7 e83d
0.10507994 0.083403245 0.07391292 0.0697083 0.0983918 0.08786918 0.106332004 0.08275054
0.09214463 0.09872918 0.08917052 0.098068915 0.06952468 0.12828562 0.07064362 0.073068246
0.15611087 0.12464048 0.08589542 0.08666099 0.072873935 0.14188306 0.09562469 0.14557773
0.098487794 0.08496014 0.10147944 0.177244 0.12925152 0.09006609 0.12166673 0.113601096

bn2.bias f4 [32]
00000000: 00eb 8d3c 2f11 56bb 8bb2 fb3b c8d3 aa3c
00000010: a4a2 6f3c a0ea ae3b 35a9 b93c d592 fd3b
00000020: d71b 9b3c c370 bc3c 2294 843c 7f8b e7bb
00000030: b654 fc3b 1845 9ebc d9d5 963c 0fd9 72bc
00000040: e71e 9c3c 2a1e 9abc 5db5 8fbb 009c 7d3c
00000050: 4e0b a53c 6af7 89bc 2e8d 8c3c e978 9dbc
00000060: 1122 a23c 71fa aa3c 64d3 a83b d8bd 613c
00000070: 165c 613c 2db4 983c 59d7 723b 1056 a83b
0.01732397 -0.003266405 0.007681196 0.020852938 0.014626179 0.005338028 0.022663692 0.007738451
0.018934174 0.023002988 0.016183916 -0.00706619 0.007700528 -0.019320056 0.018412517 -0.014822259
0.019057704 -0.018813211 -0.004385634 0.015479088 0.020146992 -0.016841609 0.017157163 -0.019222694
0.019791635 0.020871373 0.005152153 0.013778172 0.013754865 0.018640602 0.0037054627 0.0051372126

bn2.running_mean f4 [32]
00000000: f05a 0a3c e5dd b0bc 1fc2 1eba 100d 253c
00000010: 2bb1 473b 89cb 9bbc 0d3e 063c 19fb b53c
00000020: 2d07 243c 8eb3 37bb a62a b63b 90d8 30ba
00000030: 7160 a1ba 8a0c 58bc 8e1e 373c edb7 b1bc
00000040: 943c 00bc 972a 9fbc a3d0 41bc d733 82bb
00000050: 3e1b 00bb d0c4 e3bc f1e3 5a3b 8ccb 87bb
00000060: ad89 ad3a 357a 563c 93b8 a1bb 0a85 083b
00000070: dfbb a03c 5a8f 0b3c 4723 8ebc 3331 8f3b
0.008444533 -0.021590183 -0.0006056148 0.010073915 0.003047059 -0.019017952 0.008193505 0.02221446
0.010011476 -0.0028030607 0.0055592833 -0.00067461375 -0.0012312067 -0.013186583 0.011176718 -0.021694148
-0.007826943 -0.019429488 -0.011829528 -0.003973465 -0.0019547488 -0.027803808 0.0033400024 -0.0041441377
0.0013239883 0.01309066 -0.004935333 0.002083125 0.019620834 0.008518064 -0.017350806 0.0043698787

bn2.running_var f4 [32]
00000000: c39f c63a 2e4b a43a cdc9 ec3a bd3f b03a
00000010: 4c69 b93a 5b51 423a 5352 a93a 6ed6 783a
00000020: 9901 5b3a 35ea e73a 99df bf3a 0868 f93a
00000030: 5698 783a b952 e23a d3e7 523a b1fa 673a
00000040: f45d 583b b786 af3a 4a01 883a f805 cb3a
00000050: 7d1b 853a 0e20 4c3a 8558 843a cce8 b13a
00000060: 1ebd 963a 56ad ab3a cd79 283b e445 e43a
00000070: 2a9e 8b3a 8f0e 043b 6299 9d3a 216e b839
0.0015153814 0.0012534612 0.0018065512 0.001344673 0.0014145761 0.00074126356 0.0012918211 0.0009492402
0.0008354425 0.00176937 0.0014638781 0.0019028196 0.0009483149 0.0017267085 0.0008045409 0.00088493066
0.0033014985 0.0013391589 0.0010376361 0.001548945 0.0010155287 0.0007786759 0.0010097182 0.0013573407
0.0011500453 0.0013097923 0.0025707365 0.0017415849 0.0010651995 0.002015028 0.0012023861 0.00035177267

conv3.weight f4 [64, 32, 3, 3]
00000000: 4646 703b 7d34 163c cfcb 0a3c 831b bb3b
00000010: f80b 333c 5057 a13b b46a ee38 7f13 1c3c
00000020: 1b49 c53a fc61 04bc 3a76 00bc aa09 23bb
00000030: 5e2b eabb b79a 2fbb bcff 583a be17 bdbb
00000040: d73e 48b9 5eba ce35 5a75 16bb b0f8 773a
00000050: c35a 3e3c 039d e5ba bf14 6d3b 9695 293c
00000060: a415 3bbb 994a 8b3b 8bfc fb3a 5360 913a
00000070: 1fa3 e53b 76a4 ed3b e08a b9bb 3c6f 733b
00000080: 9403 c73a c23a 5ebb 2d0c 323b e2f2 14bb
00000090: 0271 a5bb 8091 f73a d100 073c 60c1 81bb
000000a0: 1293 673b b998 0d3b 95cd 83bb d3d0 453b
000000b0: 49d5 d9bb 66ce c0bb a7ce 34bc 78bf a3bb
000000c0: 4c86 adbb 32a8 08bc 282f 14bb 84e9 cebb
000000d0: e60e e8bb 9bcb 30bb a094 b2b9 3002 1b3c
000000e0: 4c59 293c 1495 ecba 9a23 253c 0b51 263b
000000f0: c660 dcbb 1795 b73b b2f1 d0ba bff6 c73b
00000100: b788 373c 3f45 3c3c 018d c73b a492 163c
00000110: b967 ee3b 2a7a e13b f1ce 103c fd6f d53b
00000120: 5e11 cebb d553 f23a 9390 673b 410b 1ebc
00000130: 0b8c 8f3a 1b90 40bb 51a2 e9bb 650d 9cba
00000140: f6e7 00bb 4804 fcba 693e 7c3b 7356 053c
00000150: 58fa 83ba cb67 af3b 0e07 e23a d36a cbba
00000160: b181 613b 8cb1 8abb c442 0ebb 42bf 17bb
00000170: 0572 053b 50ef a5bb ff9d 80bb be20 47ba
00000180: e799 f2bb e9e0 26b9 814c 81bb 4139 88b9
00000190: 3cad 503b 9f08 5e3c 3f12 7ebb 2a74 5f3b
000001a0: 13de 003c 5744 35bb ee4c be3b 51f5 e73b
000001b0: eddf a4bb aeb8 82bb 65b7 183b e111 90bb
000001c0: dff4 a3bb 8890 e5bb 9704 babb 4617 a0bb
000001d0: d087 23bb 3133 633a a436 643c e3a3 9e3c
000001e0: 9f22 133b 6e24 4e3c 995d 8e3c 3abf b23b
000001f0: ac88 473c 89ca 303c 4a40 33bb 1c5e 943b
00000200: 16bf 603b 8bd7 acbb 3e1a 433a 9964 88b9
00000210: 0b35 18bb 9030 ff3a 9437 453a f4dc 98bb
00000220: a12a b5bb 12f7 093b 9002 38bb da70 1eb8
00000230: ad16 b33b d8ac 4cbb 7d39 263b 2853 7e3b
00000240: 7cb1 fc3a 720c 213c 39ca 513c f829 033b
00000250: f2aa 2c3c bc12 0c3c 071c 3c3a d07c fb3b
00000260: 5233 e739 025c fa39 f34e de3b b7d8 963c
00000270: 8a13 353a 18c5 493c ebd4 7e3c dc5f f238
00000280: 5c99 363c 385d 1d3c a425 efbb 453b 1cbb
00000290: 2bc6 093b f8ab c1bb 2d69 57ba fde2 6b3a
000002a0: 2c59 a9bb 7b6d 1e3a 0e9d eb39 4cc7 39ba
000002b0: 7aca 8eba 4f53 9f3b 1521 24bb 0e0a f8ba
000002c0: 4e35 49bb 616b 09bb ef68 f5ba 516d 34bb
000002d0: 56eb c83b da25 e93b c5e1 0b3c 7ed4 df3b
000002e0: 313a 033b 0261 993b 743d 803b 7678 fe3a
000002f0: 0470 0b3b 902e 6f3b defc f13b c5bb 1c3c
00000300: 32e4 2b3c 3470 0b3c daa9 4b3c 4f43 543c
00000310: 9444 1d3c 2da4 663c 44ee 04bb 4e7e 043c
00000320: 57a2 073c c808 01bc 58c6 bc3b ef5d 7c3b
00000330: f127 dfbb eb16 c63b f224 3cbb 86ab 403c
00000340: 7f74 163c 8379 293c 88b8 373c e6ff 253c
00000350: d5b6 483c 2e47 273c 788e 383c b970 403c
00000360: 2a1d c2b9 fd6b 933b 6690 903b ea80 17bb
00000370: 8ab7 1db9 0097 63bb 421c c2bb dc47 e4ba
00000380: ca78 95bb eaa9 fb39 16f4 f13b 385b 093c
00000390: 8516 84bb 4865 3d3c 9f42 9b3b a3df d0bb
000003a0: f0f8 f43b 17a1 0eba a497 0a3b 5bb2 053c
000003b0: bef5 313c ba64 0a3b 72bd 483c 63f7 023c
000003c0: 6dd8 573b 00b0 293c 9d40 b13b 9099 513c
000003d0: 6f32 973c 977d 773c bc82 c13b 1d44 813c
000003e0: c75b 5b3c 0588 063c 97f7 823c 7c67 3a3c
000003f0: 8a87 323c 6a21 1e3c 118f 1b3c a8cf 98ba
0.003666298 0.009167788 0.008471443 0.0057100668 0.010928147 0.0049237385 0.000113685994 0.009526133
0.0015051694 -0.008080002 -0.007840687 -0.0024877586 -0.007146283 -0.0026795098 0.00082778535 -0.0057706526
-0.00019096896 1.5402436e-06 -0.002295813 0.00094593596 0.011618319 -0.0017518107 0.0036175696 0.0103506055
-0.0028546834 0.004250836 0.0019225044 0.0011091329 0.007007971 0.0072522713 -0.005662307 0.0037145158
0.0015183561 -0.0033909534 0.0027167902 -0.0022727777 -0.005048872 0.0018887967 0.008239941 -0.0039598197
0.0035335463 0.0021605922 -0.00402231 0.0030184283 -0.00664774 -0.0058839796 -0.011035598 -0.00499719
-0.0052955505 -0.008340882 -0.0022611115 -0.0063144583 -0.007081854 -0.0026976827 -0.0003406154 0.009460971
0.010336231 -0.00180498 0.010079289 0.0025377895 -0.0067254035 0.0056024897 -0.0015941171 0.0061024125
0.011202029 0.011491119 0.006089807 0.009190235 0.0072755483 0.006881018 0.008838401 0.006513594
-0.0062886914 0.0018488119 0.0035333976 -0.009646238 0.001095177 -0.0029382769 -0.0071299453 -0.0011905847
-0.001966951 -0.001922735 0.0038489348 0.008138287 -0.0010069115 0.0053529493 0.0017244534 -0.0015519507
0.0034409577 -0.004232591 -0.0021707276 -0.002315477 0.002036215 -0.0050639287 -0.0039250846 -0.00075961265
-0.0074036005 -0.00015914779 -0.0039458876 -0.000259826 0.0031841537 0.01355186 -0.00387682 0.0034096339
0.007865447 -0.0027659142 0.0058075106 0.0070788045 -0.005031577 -0.0039893007 0.002330267 -0.0043966626
-0.005003556 -0.007005755 -0.0056768167 -0.004885587 -0.0024952777 0.0008666991 0.013929043 0.019365257
0.0022451056 0.012581928 0.017378615 0.005454925 0.012178581 0.010790476 -0.0027351552 0.0045278203
0.0034293584 -0.005274718 0.000744257 -0.00026014893 -0.0023224975 0.0019469429 0.00075232354 -0.0046650115
-0.0055287634 0.0021051806 -0.00280777 -3.7775237e-05 0.0054653496 -0.0031230953 0.0025363856 0.003880689
0.0019278969 0.009829627 0.012804561 0.002001403 0.010538803 0.0085493885 0.0007175807 0.007674791
0.0004409799 0.00047752267 0.006784314 0.018413885 0.00069075136 0.012315057 0.015553693 0.000115573144
0.011144962 0.009604745 -0.0072981883 -0.0023839038 0.0021022658 -0.005910393 -0.00082172715 0.00089983625
-0.005168101 0.00060435355 0.00044939708 -0.00070868875 -0.0010894083 0.004862226 -0.0025044132 -0.0018923895
-0.0030701938 -0.0020968544 -0.0018723289 -0.0027530978 0.00613157 0.007115108 0.008537714 0.006830751
0.0020023698 0.0046807537 0.003913576 0.0019414562 0.0021276483 0.003649626 0.0073848804 0.009566252
0.010491418 0.008510638 0.0124306325 0.012955501 0.00959887 0.0140772285 -0.002028362 0.008086754
0.008278451 -0.007875629 0.005760949 0.0038508137 -0.0068101813 0.0060452125 -0.0028708545 0.011759644
0.009183048 0.010343912 0.011213429 0.010131812 0.012250622 0.010209842 0.011264436 0.011745625
-0.00037024292 0.004498957 0.004411745 -0.002311761 -0.0001504106 -0.0034727454 -0.0059237788 -0.0017416435
-0.0045615183 0.00048001047 0.0073838336 0.008383565 -0.004031005 0.011559792 0.0047381665 -0.006374316
0.0074759647 -0.00054408744 0.0021147514 0.008160199 0.010861812 0.0021117167 0.0122521985 0.007993552
0.0032935396 0.010356903 0.005409314 0.01279296 0.018456666 0.015105627 0.0059054773 0.01577955
0.013388581 0.0082111405 0.0159872 0.011377212 0.010896573 0.009651521 0.009494559 -0.0011658566

conv3.bias f4 [64]
00000000: 7f20 46b4 b20e 2534 6e73 0e36 0eec e6b3
00000010: 92a5 c235 5a67 b935 5680 8eb4 da38 b9b6
00000020: f53b 15b5 3f25 9533 6b0f 4133 72de 4034
00000030: 077d 3236 f66c cbb4 ef2b 1235 b8e7 2bb5
00000040: 15c3 e0b5 f104 0bb4 2e86 9934 3c94 5233
00000050: 6bbf 9db4 3da6 20b4 8cc9 5634 9570 af34
00000060: f112 85b4 0b93 f3b2 6130 49b6 a466 ecb4
00000070: 1741 c0b5 2aca 2fb5 5230 04b5 2983 9f35
00000080: 40fd b934 37af 60b4 65aa 14b6 1e7c 6a34
00000090: 6298 2bb3 2790 21b3 e927 a1b5 ce42 16b5
000000a0: a743 9c36 3f2a 8135 93ca bf34 008a e8b5
000000b0: f526 c0b3 52a2 dcb5 9bfd 79b5 d169 9133
000000c0: 6f6c bf34 f123 d4b5 b634 e231 6e50 2235
000000d0: e4a2 20b5 b6ea 59b5 aaf4 9fb3 ae8c 41b4
000000e0: fe41 0934 bfd9 e235 9418 30b5 0a89 beb4
000000f0: 1595 2d34 7806 a734 288e bab4 d1a4 cbb5
-1.8452009e-07 1.5372169e-07 2.1226838e-06 -1.0753148e-07 1.4502314e-06 1.3813653e-06 -2.6542938e-07 -5.520048e-06
-5.5594074e-07 6.945128e-08 4.4950337e-08 1.7962319e-07 2.6596842e-06 -3.7890976e-07 5.445317e-07 -6.403966e-07
-1.6746077e-06 -1.2947181e-07 2.85961e-07 4.9029254e-08 -2.9382804e-07 -1.4961638e-07 2.0003625e-07 3.2678204e-07
-2.4786962e-07 -2.835579e-08 -2.9979494e-06 -4.4033106e-07 -1.4324058e-06 -6.548677e-07 -4.924415e-07 1.1884596e-06
3.46432e-07 -2.0925368e-07 -2.2152901e-06 2.1838102e-07 -3.995263e-08 -3.761684e-08 -1.200705e-06 -5.597657e-07
4.657038e-06 9.623544e-07 3.5723914e-07 -1.732551e-06 -8.947783e-08 -1.6438519e-06 -9.3128773e-07 6.7713366e-08
3.5655418e-07 -1.5805691e-06 6.5834582e-09 6.0466743e-07 -5.984168e-07 -8.118035e-07 -7.4485186e-08 -1.8025705e-07
1.2783127e-07 1.6901685e-06 -6.5600875e-07 -3.5489967e-07 1.6166116e-07 3.111088e-07 -3.4748632e-07 -1.5172646e-06

bn3.weight f4 [64]
00000000: 76e2 913d f87d 833d 9818 8f3d d037 993d
00000010: 37f8 843d 037c 8c3d 902d 903d f60e df3d
00000020: fb6b 8e3d fa94 953d f22c e13d 02eb af3d
00000030: 528c b83d b143 913d c7b8 9b3d efbb 983d
00000040: 599b d33d 60f8 9c3d c15e 7e3d 0443 873d
00000050: 2aea 823d 8109 823d f59a 853d d969 913d
00000060: deca 863d 777d 8d3d 82e2 0c3e bec0 873d
00000070: 90dc b33d 26d7 833d 1e57 a13d 00aa b83d
00000080: 93c1 903d cf18 903d 412b 6d3d bca3 a93d
00000090: e274 793d 6bfb 983d d6f9 1d3e 92ea e53d
000000a0: bf41 913d 80a1 b23d 65ed 863d fce0 ad3d
000000b0: 6b0b 813d 35ee 093e 99a3 793d b7e4 b23d
000000c0: 204a 793d 43cc f93d 9cd6 ae3d 15e5 863d
000000d0: 476a ac3d 2c61 993d 8edc 9d3d 77b5 123e
000000e0: 6012 dd3d cfaf d93d 9d8f 7d3d 65b5 b03d
000000f0: 7b8c 7a3d a031 9c3d 173d 873d 322f d33d
0.07123272 0.06420511 0.06987113 0.074813485 0.06492656 0.06859591 0.0703994 0.108915254
0.069541894 0.07303806 0.10994901 0.08589746 0.09011139 0.07092989 0.07603603 0.074577205
0.103323646 0.07664561 0.062102083 0.06604579 0.063923195 0.06349469 0.06523696 0.07100267
0.065816626 0.06908696 0.13758281 0.066285595 0.08782303 0.06437521 0.078779444 0.090168
0.07068171 0.07035982 0.05790258 0.08283183 0.060902484 0.07469829 0.15427336 0.11226381
0.07092618 0.0872221 0.06588248 0.08490178 0.06301006 0.13469775 0.060947035 0.0873503
0.060861707 0.12197163 0.08537027 0.06586663 0.08418708 0.07489237 0.07708083 0.14327036
0.107945204 0.10629236 0.06190454 0.08628348 0.06116913 0.07626653 0.06603449 0.10311736

bn3.bias f4 [64]
00000000: 397c 24bc d089 afbb d99a d03b fe30 023c
00000010: a301 6d3b 64d0 4dbc d311 46bc 3318 05bb
00000020: 4d52 6abc fb4d 543c 4fcf 54bb 3767 953c
00000030: 999c 2bbc 4485 7c3c 915b 87bc dcbb 863c
00000040: c753 833c cd78 d03b cac5 b43b 4f48 723b
00000050: 6489 de3b 6afa 1e3b a996 30bb 113b 61bc
00000060: 932b 54bc 4096 b3bb f22b 54bc 052a 2cbc
00000070: edbc 38bc 9681 6ebb 58c2 653c defe ae3c
00000080: 689a 30bc 8a3b 92bc 543d 80bc e971 1b3c
00000090: 4d52 d43b 2b44 6d3c 45c2 943c 2828 733c
000000a0: d806 7d3c 27d9 c23b ba85 38bc 7203 c6bb
000000b0: cf3c 1a3c b57e 7f3c 6242 5e3b c04f 4a3c
000000c0: 3665 61bc 305b 68bc deb4 00bc fda8 153c
000000d0: ba27 8e3b 7505 29bc a524 643c 94e0 983c
000000e0: 3e3c a13c 20ab 333b db94 91bc de71 b1bb
000000f0: 9391 733b a645 1abc 4307 40bc d0f4 13bc
-0.010039383 -0.0053570047 0.0063661155 0.007946251 0.0036164306 -0.012561891 -0.012089211 -0.0020308613
-0.014301849 0.012958045 -0.0032472198 0.018237693 -0.0104743475 0.015412632 -0.016523154 0.016447
0.01603116 0.006362057 0.0055167424 0.0036969369 0.0067912806 0.0024258145 -0.002694527 -0.013746993
-0.012949842 -0.0054805577 -0.0129499305 -0.010508065 -0.011275512 -0.0036393157 0.014023386 0.021361765
-0.010779001 -0.017850656 -0.015654244 0.0094876075 0.0064795376 0.014481585 0.018159041 0.014841117
0.015443526 0.0059462967 -0.011262352 -0.006042891 0.009413912 0.015594174 0.003391408 0.012348115
-0.013757041 -0.014181897 -0.007855622 0.009134528 0.004338232 -0.010316242 0.013924752 0.018661775
0.019682046 0.002741523 -0.017771175 -0.0054151854 0.0037165626 -0.00941602 -0.011720481 -0.009030536

bn3.running_mean f4 [64]
00000000: 14b8 5c3c b8ce 243c d061 633c 41c9 913c
00000010: bac8 813c 377d 17bd e4ba c1bc ffa3 a1bb
00000020: d1f6 a7bc 9acd 9f3c a709 0bbc 2cab c63c
00000030: 7391 1a3d f6bd 453c d7b7 523c 99ee 783c
00000040: 54be 653c 2986 71bc 6a56 963c a3b9 183c
00000050: 7af5 b43c 78df bbbc 72d7 af3c 37ef efbb
00000060: 2b3d c03c f49b 1ebc 8c93 93bc 16c4 e3bc
00000070: 84a6 c93c 5bec 50bc b773 823b f8b0 663c
00000080: 23a7 e63c 4a41 f73b 8bb4 d4bc ca0a ea3c
00000090: 4fcf 0e3c d782 683c 04f3 d43c 1e69 003d
000000a0: 709a b13a 3ed5 d43c 6224 d9bb 99d4 c73c
000000b0: 7e43 b63c cca2 0a3d 7f7f 5c3c 45d4 af3c
000000c0: fa0a 1fbd ccff 083c 6c5f ab3c 2dc1 463c
000000d0: d8ae f43a d9f9 b33c 8655 de3c 5cc9 d83c
000000e0: 5dfd 003d 3520 d13c 6432 46bc 45ca a9bb
000000f0: b3be 2a3c d5d3 b83c 5c26 343c cc72 d83b
0.013471622 0.010059051 0.013878301 0.01779616 0.015842784 -0.03698465 -0.023648687 -0.00493288
-0.020503433 0.019507218 -0.008486188 0.024251543 0.037736367 0.012069216 0.012861214 0.015193605
0.014022429 -0.014741459 0.018351752 0.009321603 0.022089709 -0.022933707 0.021465037 -0.007322218
0.023466667 -0.009680737 -0.018014692 -0.027803462 0.024615534 -0.012751664 0.0039810794 0.014080279
0.028155869 0.007545625 -0.025964996 0.028569598 0.008716418 0.014191351 0.025994785 0.031350248
0.0013550054 0.025980588 -0.0066266516 0.024393367 0.02224898 0.03384666 0.013458132 0.021463523
-0.038828827 0.008361768 0.020919524 0.012131018 0.001866783 0.021969723 0.02714039 0.026463203
0.031491626 0.025528053 -0.012096975 -0.005181583 0.010421443 0.022561947 0.010995474 0.0066054817

bn3.running_var f4 [64]
00000000: 698b 893a 0ef9 b63a ccbe 703a ee01 d73a
00000010: 6a79 de3a eafa b53b 6b5d 203b aa17 8139
00000020: 0437 233b 8877 093b 4b19 323a 47b8 4a3b
00000030: 172a d13b d1d0 7f3a 578a af3a 1acd c13a
00000040: 34cc c33a a5f8 0a3b 2aa0 ec3a d1a2 3f3a
00000050: ceea f73a 1368 313b a4de d23a 88ea bb39
00000060: cb21 0b3b 8015 163a b2ce a03a fa60 873b
00000070: 7469 053b e783 1a3a 7d8f f239 3f7b ae3a
00000080: caeb 3c3b c765 163a f34e 4b3b 8137 593b
00000090: 19a7 813a bec1 823a e44f 5d3b 59f8 933b
000000a0: b37f 163a ecea 323b 739d 823a 8c2f 083b
000000b0: c0b9 003b 7137 863b 032b 763a ea29 063b
000000c0: 9fd8 c43b 8fe8 c439 224f bc3a afd7 903a
000000d0: 1991 013a 082d 483b 6292 283b 8632 4d3b
000000e0: 973e 9f3b 36a7 203b 78ba 443a f291 053a
000000f0: 7c26 313a 3847 353b 57e5 213a c040 d239
0.0010493818 0.0013959722 0.00091837044 0.0016403773 0.001697344 0.005553593 0.0024469744 0.00024622428
0.0024904618 0.0020975787 0.000679393 0.0030932592 0.0063831913 0.0009758594 0.0013392669 0.0014785856
0.0014938177 0.0021205333 0.0018053104 0.00073103333 0.0018914582 0.002707009 0.0016088081 0.0003584216
0.002122986 0.00057252496 0.0012268631 0.0041314336 0.0020357044 0.0005894289 0.00046264744 0.0013311877
0.0028827065 0.0005737212 0.00310224 0.0033144655 0.0009891718 0.0009975953 0.0033769542 0.0045156893
0.00057410746 0.002730067 0.0009965136 0.0020780293 0.0019641966 0.0040959646 0.00093905645 0.002047176
0.0060072686 0.00037557303 0.0014366845 0.0011050607 0.00049425807 0.003054442 0.0025722017 0.0031310632
0.004859756 0.0024513728 0.00075045926 0.0005095295 0.0006757749 0.0027660858 0.0006175837 0.00040102564

conv4.weight f4 [128, 64, 3, 3]
00000000: f8a5 853b 343a b03b b932 283b 7edd db3b
00000010: 73aa ef3b 88dc 433b 1a21 f73b d690 cd3b
00000020: dc42 323b 92f7 dd3a be36 f7ba 2bcd d6bb
00000030: acd6 c53b 7124 29b9 fcdd ddbb 2a75 883b
00000040: dcc4 4fbb 30dd 0cbc 756d 41ba cc75 1d3b
00000050: a741 5c3b 918e 423b cc13 c23b 4d22 3c3b
00000060: 220e b93b 9496 9a3b 980a b1ba ab3f 0cbc
00000070: b324 aebb d954 ddbb 9875 13bb 8a12 a13a
00000080: a073 bfbb 600e 37bb d0fe 03ba 6ee3 ddbb
00000090: dedb 9cba 3a7e 273b d3bc 60b7 a84f 163b
000000a0: 0bb1 9c3b 086f a93a 32f7 573b f665 613b
000000b0: 861e 57bb 42cf 07bc 0ea5 cabb c19e 18bc
000000c0: 223c 03bc 2d52 1bbc 5648 11bc c116 1bbc
000000d0: 16f4 2dbc f1d1 06bc 1a6e 17bb 1dd2 a3bb
000000e0: 6049 32bc 0186 3cbb 1c24 ccbb 7611 d9bb
000000f0: 9c9b e5bb 8aac eebb 1fb8 edbb 4a36 bc3b
00000100: f4e6 0ebb f65d adbb a171 933b a2d5 8cbb
00000110: 0216 acbb 3031 31ba 30d1 86bb 64b9 7bbb
00000120: 0226 cb3a 4241 55bb 9786 8abb 1439 693a
00000130: 530d 6cbb 9324 2abb d379 143b a4e1 33bb
00000140: 8ae1 51bb 4604 deba dce1 85b9 8ec2 5dbb
00000150: 7278 8a3b 82c9 b93b 329d 0bba 60fe 463a
00000160: 6ca9 b73a 2921 6bbb 87df ab3b 3a9a fb39
00000170: 677a 1cbb 97ff 2d3b f481 f3ba edf3 22bb
00000180: ba70 caba d292 1ebb d2f6 c4ba a514 0b3a
00000190: c29e 3b3b 8c94 243a bb79 8a3b 274e c93b
000001a0: a14b a53a 7640 8d3b 252f 4d3b 63b5 b4ba
000001b0: ba97 243b 17c4 8e3b aafd 2e3b 36fb cd3b
000001c0: a18e 133c af9c 9a3b 00a1 ec3b 48fe eb3b
000001d0: 30eb 9a3a cdb0 c339 928e 0c3c d89a ce3b
000001e0: 0eb4 c73b 1a8c 233c 25f5 7d3b 4260 bf3b
000001f0: 10d9 aa3b 06ff 3fbb 5b8d 32bb 262d 273b
00000200: c74a a33b ae7a ecba cffc 8e3b c0f7 0f3c
00000210: 5029 43ba 5cab ba3b 26d2 b33b 64de 8ab8
00000220: 1501 063b 38a6 053a 4b79 ee3a 9282 4b3b
00000230: 47bf 6239 69be b73a 6950 513a 584c 2dbb
00000240: 90e2 633a aeda af3b 4c9e e63a 88d4 dd3b
00000250: 17ca 3b3c 3e2e a73a 4426 193c 7388 a83b
00000260: 70a0 76bb 5fd6 debb 7e46 09bc 6c2f ce3a
00000270: eb9a 0abc 7720 b8bb 2d5e 103b 5fd7 05bc
00000280: 3017 72bb 7c9a 963b 3460 67bb 476d f2b9
00000290: a24e 7cbb 976d f8ba 872d 833b 86f5 d138
000002a0: 3a62 36bb ac7c c13a 8ee2 68bb a25d 90bb
000002b0: ca71 19bb 251c 8cbb e3b4 89bb 5f15 343b
000002c0: a546 9eba e7a2 59bb 170a 9d39 3a87 61bb
000002d0: f689 eeb9 ebd7 f63a c4ae 73ba 4f86 4a3b
000002e0: 2704 bc3b 02d0 82ba 06c7 143b 47da 043b
000002f0: 77b0 84bb 40af dfba f591 2739 3b7a 0e3b
00000300: f199 c4b9 2350 ab39 83c4 983a ec36 7539
00000310: 0907 ad38 6355 f239 e2b2 023a d9fd 543b
00000320: 6a30 a23a 1a1e 3d3b d9b5 583b deab e83a
00000330: 3cd3 e73a 223a 033b dfc9 f439 ff5b 17bb
00000340: c0ec 4bbb d4c4 8fba 4a41 1fbb 0381 4abb
00000350: 2e77 21bb 56c2 2abb 66b0 0fbb 59b5 6eba
00000360: 4cfd be3a 1f20 863a 5d62 e438 96e0 383b
00000370: 2095 5d3b 9a93 6b3b 4e06 b93b 7786 fc3b
00000380: 8828 9b3a b47a dabb 808b cfbb 1361 dfba
00000390: c90b 68bb c963 b4bb 83b0 80bb d7d5 9bbb
000003a0: 4c48 3abb 0c06 78ba ab37 7bbb dafb b6bb
000003b0: dfb6 75bb 70c7 79bb cd88 77bb c17d 3dbb
000003c0: eea1 f4ba fce8 dbba e76c feba b76d eeba
000003d0: e0c9 3ebb 4705 3b3a f157 c1ba 7bc6 9aba
000003e0: a332 6c3a 0fb1 803a e247 2338 9928 563b
000003f0: 0213 1f3a 7ff3 4a3b 0edc 723b d60c 853b
0.004078623 0.005378032 0.0025664999 0.0067097535 0.0073140203 0.0029886086 0.007541788 0.0062733693
0.0027200496 0.0016934744 -0.0018860919 -0.0065552196 0.006037554 -0.00016130671 -0.0067708474 0.0041643577
-0.003170303 -0.008597657 -0.0007378676 0.0024026511 0.0033608468 0.0029687027 0.00592277 0.0028706968
0.0056474367 0.0047176573 -0.0013507186 -0.0085601015 -0.0053144335 -0.0067544994 -0.0022500511 0.001228885
-0.005842641 -0.0027932152 -0.00050352234 -0.0067714965 -0.0011967381 0.0025557415 -1.33954045e-05 0.0022935662
0.0047818474 0.0012926767 0.0032953736 0.003439305 -0.003282459 -0.00828916 -0.006184227 -0.009315194
-0.008009942 -0.009480041 -0.008867344 -0.009465874 -0.010617277 -0.008228765 -0.0023106397 -0.0049994127
-0.010881752 -0.0028766396 -0.0062298905 -0.006624396 -0.0070070755 -0.007283752 -0.007254615 0.0057437764
-0.002180514 -0.005290742 0.0044996296 -0.004297928 -0.005251647 -0.00067593437 -0.0041142926 -0.0038410062
0.0015498998 -0.0032540117 -0.00422747 0.000889675 -0.0036018684 -0.0025961741 0.002265562 -0.0027447725
-0.00320253 -0.001693853 -0.00025536015 -0.0033837887 0.004225784 0.0056697736 -0.0005325853 0.00075910054
0.0014012284 -0.003587792 0.0052451524 0.00047989358 -0.0023876668 0.0026550048 -0.0018578158 -0.002486463
-0.0015444972 -0.0024196398 -0.0015027171 0.00053055055 0.0028628563 0.0006278239 0.004225937 0.0061433497
0.001261104 0.004310663 0.0031308618 -0.0013786968 0.002511485 0.004356872 0.0026701489 0.00628605
0.009006173 0.004718385 0.007221341 0.0072019435 0.0011819359 0.00037325025 0.008578913 0.00630508
0.0060944622 0.009982133 0.0038750854 0.0058403322 0.005213864 -0.0029296293 -0.00272449 0.0025509088
0.0049832794 -0.0018041932 0.004363633 0.008787096 -0.0007444816 0.005696697 0.005487698 -6.621776e-05
0.0020447422 0.0005098316 0.0018194107 0.0031053168 0.00021624296 0.0014018539 0.00079846993 -0.002644321
0.0008693123 0.005366645 0.0017594784 0.0067697205 0.011461756 0.001275487 0.009347502 0.005143219
-0.003763225 -0.0068004574 -0.008378623 0.0015730686 -0.008459787 -0.0056191045 0.002202879 -0.008169024
-0.003694009 0.0045960527 -0.0035305144 -0.00046239255 -0.0038499017 -0.0018953559 0.00400323 0.00010011629
-0.0027829544 0.0014761887 -0.0035535428 -0.004405693 -0.002341377 -0.004275816 -0.0042024716 0.0027478558
-0.0012075497 -0.003320867 0.0002995289 -0.0034412877 -0.00045497686 0.0018832659 -0.00092957565 0.0030902808
0.0057377997 -0.0009980204 0.0022701635 0.0020271705 -0.0040493566 -0.0017065778 0.00015980734 0.0021740336
-0.00037498728 0.00032675368 0.0011655245 0.00023385481 8.250593e-05 0.00046221455 0.0004985762 0.0032499938
0.0012374048 0.0028857053 0.0033067374 0.0017751416 0.0017686854 0.0020023664 0.00046689712 -0.0023095605
-0.0031116456 -0.0010968694 -0.002430039 -0.003089965 -0.0024637687 -0.0026055775 -0.002192521 -0.00091060024
0.0014571338 0.0010232962 0.00010890209 0.0028210036 0.003381081 0.0035946132 0.0056465035 0.007706459
0.0011837641 -0.0066674594 -0.0063337684 -0.001704248 -0.0035407415 -0.0055050594 -0.003927292 -0.0047557163
-0.002842444 -0.000946135 -0.0038332741 -0.0055842223 -0.0037493033 -0.0038113259 -0.0037770749 -0.0028914066
-0.0018663981 -0.0016777809 -0.0019411118 -0.0018190657 -0.0029112026 0.000713427 -0.001475094 -0.0011808419
0.0009010231 0.0009818393 3.8929174e-05 0.0032678007 0.0006068201 0.003096789 0.0037057432 0.004060368

conv4.bias f4 [128]
00000000: c3d0 5d32 de3f c731 3448 6034 8a0a f633
00000010: 0e2b 5534 e834 7cb4 48d1 4232 e2dc f833
00000020: 5601 3db3 d9b8 80b7 eb1f 8f34 6ed9 3133
00000030: 95a1 3133 932f 3fb4 a4ec 48b4 7626 01b6
00000040: 5cc7 b3b4 49d5 b4b2 7ec6 4bb4 5956 7ab5
00000050: d6f4 a8b5 b54e c234 7cae dbb1 d000 d730
00000060: 176a 7a35 a4d5 e135 ba33 8ab4 31ae 0534
00000070: 3e44 5f35 a9e0 1e33 bd14 13b4 a8f4 7236
00000080: a98e 1a34 12e0 6733 6a6d ef34 577f 9caf
00000090: 8fa0 e7b4 f83f 97b2 abe8 0eb3 2306 0634
000000a0: 9fb6 5830 ac7a 07b4 8dd1 8f33 7275 efb2
000000b0: 137e 95b5 576c 5c36 6607 4eb3 5d52 99b5
000000c0: b789 1db3 3f8f 9bb2 2310 acb3 d772 9c34
000000d0: 0b6e 3932 d791 c734 ffc4 4434 864c 5f34
000000e0: ae70 35b5 14fc 63b5 3f64 de33 2626 21b5
000000f0: 5e4e f433 ba00 7836 cf8c ac34 0a13 2e35
00000100: ebfe 38b5 0e92 00b5 4ac8 5333 b1c8 8c33
00000110: 0ce1 132f 60bf 3835 c3d7 b6b4 ab75 3232
00000120: 12a5 a332 dae4 b6b2 f909 34b4 75c1 2437
00000130: 2e46 6035 45fd a533 3979 44b4 34b7 abb5
00000140: 4123 b6b2 9bcc 42b3 80be 78b3 ce0a a434
00000150: 6515 05b4 cd24 cab2 d454 0e35 d81e e3b5
00000160: 5db6 a930 0d34 d1b3 e17b 1bb2 6cf6 2434
00000170: 2925 47b6 b984 f2b2 cd4b 32b5 f304 a4b3
00000180: 966c 9e35 c648 a9b2 a441 7635 e543 da33
00000190: bf43 1e36 c117 1134 885e 2033 620f 2935
000001a0: 1f73 e7b4 c083 c8b4 1d8f 4a34 7b05 1a34
000001b0: f046 b1b0 fd83 8933 55e2 5633 c945 a6b2
000001c0: 90f2 d0b2 496f 36b5 f9cf ccb4 15ab 8333
000001d0: 97a9 5334 9397 deb4 9404 5cb4 20f1 26b3
000001e0: a534 aab4 a3ea 11b4 0a08 77b2 d9bc 8eb2
000001f0: 82f1 2eb4 a87c 6435 aa30 91b4 dffa a333
1.291136e-08 5.798923e-09 2.0887893e-07 1.1457185e-07 1.9852834e-07 -2.3488576e-07 1.1339871e-08 1.1588578e-07
-4.4006207e-08 -1.5344865e-05 2.665905e-07 4.1408775e-08 4.1357982e-08 -1.7805569e-07 -1.8712541e-07 -1.9244885e-06
-3.34864e-07 -2.1051749e-08 -1.897806e-07 -9.325791e-07 -1.2588232e-06 3.6192583e-07 -6.3935754e-09 1.564354e-09
9.328664e-07 1.6825984e-06 -2.574214e-07 1.244996e-07 8.317328e-07 3.699157e-08 -1.3697986e-07 3.6203219e-06
1.4394267e-07 5.398767e-08 4.4596828e-07 -2.8466715e-10 -4.3143925e-07 -1.7607803e-08 -3.327356e-08 1.2481955e-07
7.883986e-10 -1.2617483e-07 6.6970735e-08 -2.787667e-08 -1.1138058e-06 3.2845617e-06 -4.796984e-08 -1.1423359e-06
-3.6679662e-08 -1.8109516e-08 -8.0123094e-08 2.914082e-07 1.0793438e-08 3.717275e-07 1.8325589e-07 2.0796332e-07
-6.7591725e-07 -8.493091e-07 1.0355915e-07 -6.0032687e-07 1.137639e-07 3.6955303e-06 3.2139948e-07 6.4847757e-07
-6.8916296e-07 -4.7896253e-07 4.9309428e-08 6.5557636e-08 1.3449525e-10 6.882383e-07 -3.405713e-07 1.0387718e-08
1.9050763e-08 -2.1291658e-08 -1.6767434e-07 9.8202045e-06 8.354863e-07 7.729481e-08 -1.8298023e-07 -1.2793812e-06
-2.120362e-08 -4.5355232e-08 -5.791526e-08 3.0555242e-07 -1.2394374e-07 -2.353263e-08 5.3022563e-07 -1.6921795e-06
1.2348199e-09 -9.741789e-08 -9.050354e-09 1.5363338e-07 -2.967494e-06 -2.8232863e-08 -6.642047e-07 -7.6377454e-08
1.180352e-06 -1.9707283e-08 9.173766e-07 1.0163766e-07 2.3583268e-06 1.3512819e-07 3.733888e-08 6.297979e-07
-4.3110865e-07 -3.7348764e-07 1.886478e-07 1.4344361e-07 -1.2898607e-09 6.403568e-08 5.0031606e-08 -1.9356678e-08
-2.4324692e-08 -6.7962225e-07 -3.814928e-07 6.1312825e-08 1.9712603e-07 -4.1461007e-07 -2.0490762e-07 -3.886919e-08
-3.1703271e-07 -1.3589538e-07 -1.437912e-08 -1.6616854e-08 -1.6292873e-07 8.511802e-07 -2.7043762e-07 7.635912e-08

bn4.weight f4 [128]
00000000: 1d56 953d 9448 863d 14bd 8f3d 8f77 893d
00000010: 88c7 a53d 3269 7f3d 716e 8b3d f14d 843d
00000020: 5498 a93d 1921 e33d cac5 d83d ac91 8a3d
00000030: 4d67 7e3d 91c1 913d 1f2c 823d fa9f f73d
00000040: eee5 833d eff0 8e3d b834 913d 5c0b 883d
00000050: 69ab 993d 172c 813d 356f 9e3d be49 8a3d
00000060: 0dd6 d13d c726 ab3d 0faf 823d 5dd8 893d
00000070: b336 a93d 89fb 893d 5166 993d 75e7 a73d
00000080: d2e3 973d 8f02 8c3d ce4e ac3d 739d b93d
00000090: ef50 e73d aa70 863d eca7 9c3d 7794 813d
000000a0: 6ef2 743d 40c7 af3d ef9b 953d dd19 793d
000000b0: 14c4 8d3d 67b3 063e 97da 873d 87fa a83d
000000c0: bc06 8a3d 63bd 873d 6b33 7e3d 1386 963d
000000d0: 1149 863d 7a1a 783d 95f5 8d3d 03e1 823d
000000e0: d508 a33d 42a9 b13d fd10 923d a0a2 b13d
000000f0: bdda a33d 70ee b23d dcfb 893d e181 d33d
00000100: 1e6c bd3d c734 e03d 2312 993d 6a5f 993d
00000110: 2ddb 8f3d 33ac b73d cb63 8a3d 8bfe 933d
00000120: e17d 703d 3999 aa3d 6b48 843d bc83 1b3e
00000130: c13b d83d f1e4 9e3d fa4b 9a3d 65d9 cd3d
00000140: 0c9d 843d e671 9e3d c666 953d 14d3 833d
00000150: 4071 903d 1965 983d c472 c73d 19d6 aa3d
00000160: 821c c03d 06e0 933d 4734 d53d 3b14 8b3d
00000170: 229a d23d 6f43 c63d 421f c73d 6df8 833d
00000180: c083 d43d 1ef1 7b3d 83d4 8b3d bd7e 9e3d
00000190: cc76 cf3d 3bc2 703d f462 a03d 4ec1 a93d
000001a0: dc34 9d3d 9444 b23d 39b6 793d 1b04 6f3d
000001b0: 6b11 773d fb8c 7e3d 8de0 753d 964b 833d
000001c0: 66bf 8f3d 8977 863d c228 8b3d 89aa ad3d
000001d0: 29d0 7c3d 0815 873d 6752 aa3d 0647 733d
000001e0: 4af8 9a3d 757c 793d 1b10 803d 8f80 823d
000001f0: c42c 893d 120e d43d 9e12 943d 919a 8e3d
0.072918154 0.06556812 0.07018486 0.06712257 0.08094698 0.06235618 0.068081744 0.06460179
0.082810074 0.11090297 0.105846 0.06766066 0.062110234 0.07116998 0.06356072 0.1209106
0.0644034 0.06979548 0.070901334 0.06642792 0.07503397 0.063072376 0.07736055 0.067523465
0.10245905 0.083570056 0.06381046 0.06730721 0.08262386 0.0673743 0.074902184 0.08198444
0.074165 0.068364255 0.08413468 0.09063234 0.11294734 0.06564458 0.07649216 0.063271455
0.05980151 0.08582926 0.073051326 0.06081568 0.069221646 0.13154374 0.066334896 0.08250909
0.06739566 0.066279195 0.062060755 0.073497914 0.06556905 0.060572125 0.06931607 0.06390574
0.07960669 0.086748615 0.071321465 0.086735964 0.080007054 0.087368846 0.067374915 0.10327507
0.09249137 0.109475665 0.074741624 0.07488902 0.07024226 0.08968391 0.06757315 0.072262846
0.058713797 0.08330006 0.06459125 0.15186971 0.10558272 0.07758511 0.07534023 0.1005123
0.06475267 0.07736568 0.07294993 0.06436744 0.07052851 0.07441158 0.09738687 0.08341617
0.093804374 0.072204635 0.10410362 0.06790968 0.10283305 0.09680831 0.09722759 0.06443868
0.10376692 0.061509244 0.06827643 0.07739017 0.101300806 0.058778983 0.07831374 0.08288823
0.07676098 0.087044865 0.060964797 0.058353525 0.060319345 0.06214617 0.0600286 0.06410901
0.07018928 0.06565768 0.06794883 0.084797926 0.061721954 0.06595808 0.08316498 0.059393905
0.07566889 0.060909707 0.06253072 0.06372177 0.066979915 0.10354246 0.072301134 0.06963075

bn4.bias f4 [128]
00000000: 5c86 993b a049 d4b9 0112 333c 6a20 63bb
00000010: de1b 1ebc b8a9 f43b 4c27 c73b d3d8 83bb
00000020: 3bf5 003c 033b 57bc 1601 8d3b 0f59 26b9
00000030: 72b1 26bc 67b6 283c dc5d 1dbc 9365 07bc
00000040: 44ed 0f3c 1ab5 2a3c 1983 62bc 24f6 e4ba
00000050: 33de c33b b22a fdbb 80da 2ebc de39 1fbc
00000060: 4bd0 de3b 1c55 37bc 75da 7ebb bc89 6abb
00000070: 9688 383c 6f79 17bc 274e 5cbc 7373 71ba
00000080: 9a0c 0b3c 89ce f13b 85fd c4bb 8b56 433c
00000090: 6dce 1cbc 48ff 02bc 1b09 333c e59a 27bc
000000a0: ef51 17bc c228 6c3c 7e59 15bc effc 3abc
000000b0: 2194 943c 8d59 53bc d31a 5abc 5a04 acbb
000000c0: 0c63 02bc 5502 153c ede5 3abc 8170 1ebc
000000d0: a285 d73b fb49 30bc e89d 16bc 9ec7 2dbc
000000e0: 63b7 a53b 2941 463c 81a1 2bbc e27b 4f3c
000000f0: 5747 ccbb 8823 1a3b 2af7 3abc 8d69 e03b
00000100: 0ffe 14bc 5256 273c 2e66 f43b 92ee 623c
00000110: 6c33 e83b cef4 293b ddcc 21bc 2a04 c53b
00000120: 4e17 1ebc bda2 463c f04d 30bc 5471 863b
00000130: 5422 063c 950f 743c 43ae 4dbc e7a1 b73b
00000140: fbe1 85bb cf81 623c d484 993b 9500 0bbc
00000150: 76f4 e0bb 9748 5abc 01af 103c a120 f2bb
00000160: ca3f 153c b45b 41bb 7ff2 023c 1615 30bc
00000170: 0c96 e33b e953 713c 3469 0cbc c83e 13bc
00000180: b321 dd3a a72b 3fbc f5a6 a3bc ef06 183c
00000190: f8ea 5abb 8df2 4bbc 9019 fcbb a5c2 5239
000001a0: 754f db3b 0e24 79bc 5588 05bc 74d2 3dbc
000001b0: a5a1 33bc aba5 4f3c d935 1ebc 670a 16ba
000001c0: 65b2 5fbc 38db 503c 5a43 48bc 0a91 19bb
000001d0: a6f9 dcbb e26f 583b 4218 a8bb a806 6cbc
000001e0: f57b 243c ddbe 3fbb e502 333c 89d6 573c
000001f0: 67c7 1bbc 38da 9b3b c7e6 5c3c 438c 01bc
0.0046852063 -0.00040490646 0.010929585 -0.0034656771 -0.009650199 0.007466521 0.0060776826 -0.00402365
0.0078709675 -0.013136628 0.004303108 -0.0001586417 -0.010174142 0.010297394 -0.009604897 -0.008263963
0.008784596 0.010419155 -0.013825201 -0.0017468375 0.005977416 -0.007726037 -0.010672212 -0.009718386
0.006799733 -0.011189725 -0.0038887535 -0.0035787662 0.011263033 -0.009245261 -0.013446367 -0.00092106237
0.008486891 0.0073793572 -0.006011667 0.011922489 -0.0095707 -0.007995434 0.010927464 -0.010229801
-0.009235843 0.014414014 -0.009115575 -0.011412843 0.01813704 -0.012899769 -0.013312059 -0.005249542
-0.007958185 0.009094794 -0.011407358 -0.009670378 0.0065772096 -0.010759826 -0.009192921 -0.0106066745
0.005057262 0.012100496 -0.010475517 0.012663813 -0.0062340903 0.0023519713 -0.011411468 0.00684852
-0.009093775 0.010213451 0.00745847 0.013850825 0.007086208 0.0025933268 -0.009875503 0.0060124593
-0.009649111 0.012123761 -0.010760769 0.0041028652 0.008186895 0.014896293 -0.012553754 0.005604017
-0.004085777 0.013824894 0.004685024 -0.0084840255 -0.0068650795 -0.013322971 0.008830787 -0.0073891436
0.009109447 -0.0029504122 0.007992386 -0.010747215 0.006945377 0.014729478 -0.008570004 -0.008987136
0.0016871005 -0.011668122 -0.019977072 0.009278997 -0.0033404212 -0.012447965 -0.007693477 0.00020099671
0.0066928216 -0.01520635 -0.00815018 -0.0115858205 -0.010963832 0.012673776 -0.009656393 -0.0005723596
-0.013653372 0.012747578 -0.012223089 -0.0023432397 -0.0067436276 0.0033025672 -0.005129845 -0.014405884
0.010039319 -0.002925805 0.010925983 0.013173708 -0.00950799 0.0047562383 0.013482756 -0.007906976
