best_recall_discriminator.pth (torch, 421831 bytes, 30 tensors)

conv1.weight f4 [16, 3, 4, 4]
00000000: ee68 a03b 6e0b 06bc 85d9 4eba 94e2 123c
00000010: 2b71 3bbc b02f 1cbd 5c88 6e3a 85f4 1e3c
00000020: f6e1 4a3c e840 40bc 7014 44bc c12c 033d
00000030: fec6 68bc bda8 813c 1ce6 25bb 7286 54bd
00000040: 1f0d d0bb dab5 cbbc c89f 0e3c fa7a 5d3a
00000050: 0f1c c63c 2de0 803c 8f24 19bd 4813 123d
00000060: 4067 6f3b 1f3e 873c f139 32bc c82b b13c
00000070: cd7b 033c 9bd3 7bb9 57b9 de3c 97a1 e3bc
00000080: 59bf 8ebc cfb2 523c aa7b 42bc 1cad 133c
00000090: b561 17bc 32ae f03c 09af 653d 677f 0cbd
000000a0: 5a13 d83c 6c8c bebb 7ac9 ce3c fc96 ddbc
000000b0: 77a0 e43c 0e80 a13a ab8b ab3c 5611 c43c
000000c0: f2ec f4ba 783d 10bb fd17 3e3c ffe2 a43a
000000d0: 8bbd 9c3c 86fe 5f3c 7e53 aa38 5d95 40ba
000000e0: ea34 073d a272 dc3c 4875 99ba 5da4 fbba
000000f0: 47db 44bc 5b43 d03c 4ebf e8ba 1613 d4bb
00000100: 4793 5c3a 6269 c03a c845 88bc 1360 69bc
00000110: e67a 3fbd a66f 1cbc 0afe f839 740c 6ebb
00000120: 3a72 2abc 6689 a63a f94b 93bc b15c 7cbb
00000130: 9212 2fbc bc33 103d 7e0a c2ba da70 f6ba
00000140: ac5a 28bc bf8c 42bc 43bb 3e3c 2904 043b
00000150: 843b dcbc 13b8 95bc 378d f1ba 8680 7f3b
00000160: 12bd 103d ee68 a03c ec47 0cbc 0da1 36bb
00000170: 4750 09bd 2200 2dbc 9300 87bb 03a9 f1ba
00000180: db02 953c 4ec3 a4bb df08 773b dd1b 0abd
00000190: 04a2 5c3c 4713 e43c 8cfa 423b 258d 923d
000001a0: 1144 133c 1e79 2bbb ef88 683b e637 41bc
000001b0: 3391 55bb f3b5 a93a 8fc6 7e3b 5971 6f3d
000001c0: c5c2 c7bc e56d c33a 9a54 5c3c 5f80 373b
000001d0: ae63 edb9 f1b8 e03c e078 5a3b 6d7a febc
000001e0: 2e7e 123d 0ef4 0f3b 7254 ba3b 724f 63bc
000001f0: 58ba 0e3c bfeb 4b3b 1cb3 973b ebba 243b
00000200: 120c 26bd 5c50 86ba 0580 623b 070d fbbc
00000210: 8b22 1f3a 8a58 20bd 32d7 803b 6b5d 32bc
00000220: e6b0 85bc 41c8 8e3c bc9d 4b3b 8c2d 0fbc
00000230: 334e 3d3b 949d fa3c d41e 163c dc89 67bd
00000240: aea6 64bd f8a9 8cbc 61dd 02bd c90e 203d
00000250: ddf2 ddbd 76ea 9f3d 5ede 19bd b7e3 5dbd
00000260: f063 1b3d 0c1c 783d 27e8 2fbd f028 2d3d
00000270: 83ed 4c3b ddd3 2f3d d365 223d e863 483d
00000280: 356a 05bd 9794 bebd 8efc a73d fa63 0d3d
00000290: cf4b a0bc 3689 073d f3b0 9bbd 089a 313d
000002a0: 3cfa 673d 9870 83bd e1ad 653d f3d1 203b
000002b0: 641e 403d 5f1b 093d 164d 83bd e075 85bc
000002c0: b471 5dbd a732 7a3d e2ee 1fbb 6fd9 663d
000002d0: 0f8b 97bd ece5 8f3d a889 84bc da27 693d
000002e0: fbc0 9b3c 8175 8dbd 0518 da3c 8c21 b23b
000002f0: f25a a4bd 324d 39bd 0fd9 613d 1e05 803c
00000300: 1751 833c 2f52 30bd 17ec 9fbc 6d7d c7bc
00000310: af9c 533d 0f30 66ba 334e 51ba fd19 323b
00000320: 89fd 563d f294 18bd c1a6 a0bd c2f3 33bc
00000330: 9bb2 4dbd c139 543d d7ec b23c b445 a13b
00000340: 50cf 48bc 22af 0f3d 9fc5 413c e9c7 95bc
00000350: d256 4bbd 50f5 08bd ac72 493d 788a 4bbd
00000360: cbe8 443d 3fe7 163c 2d59 a93c 1154 1fbd
00000370: 385a b5bc 5187 613d 64d4 dabc 9359 2ebd
00000380: adfe f83c db71 5f3d 33ab fc3c 1fdd 7ab9
00000390: 3a98 d23c 96d0 87bc 29be a3bc 2149 573c
000003a0: 8637 94bd a618 9d3d 1fd6 843b f4c0 8dbc
000003b0: 2b63 383d 7547 3bbd e08a 063a 989a 183d
000003c0: f4bd cdbc a92f 733c bc39 433d 5204 02bb
000003d0: 2858 2d3d 7394 a63c 8e9b 69bd 1c7a 223d
000003e0: e928 533d 316e 80bd 41da 1abd 512f 943c
000003f0: 657b 6abc 42fd 1bbd 598b 93bb 78a2 7ebc
0.004895321 -0.008181436 -0.00078906893 0.008965153 -0.011440556 -0.038131416 0.00090992986 0.009701853
0.012382975 -0.011734225 -0.011967763 0.032025103 -0.0142076 0.015827531 -0.0025314158 -0.05188603
-0.0063492204 -0.024866987 0.008705087 0.0008448806 0.024183301 0.015731895 -0.03738838 0.03566292
0.0036530048 0.016509114 -0.010878072 0.021627322 0.008025122 -0.00024016055 0.027187986 -0.027787013
-0.017425226 0.012860014 -0.011870304 0.00901344 -0.009239604 0.029379938 0.05607513 -0.034301188
0.026376415 -0.0058150794 0.025242556 -0.027049534 0.027908547 0.0012321488 0.020940622 0.023934048
-0.0018686338 -0.0022009294 0.011602399 0.0012579857 0.01913335 0.013671523 8.121783e-05 -0.00073464756
0.033009447 0.02691013 -0.0011707926 -0.0019198764 -0.01201517 0.025422743 -0.0017757209 -0.006472002
0.000841428 0.0014679844 -0.016634837 -0.014244097 -0.046748064 -0.009548103 0.0004749152 -0.003632334
-0.01040321 0.0012705743 -0.017980563 -0.0038507397 -0.01068558 0.035205588 -0.0014804152 -0.0018801943
-0.010275524 -0.011874377 0.011641326 0.0020144081 -0.026883848 -0.01827625 -0.0018428926 0.0038986518
0.03533656 0.019581284 -0.008562069 -0.002786699 -0.033523824 -0.010559114 -0.0041199415 -0.001843721
0.018189838 -0.005028165 0.0037694497 -0.03371798 0.013466362 0.027841223 0.0029751388 0.071558274
0.008988396 -0.002616472 0.003548201 -0.011793112 -0.0032587766 0.0012947902 0.0038875674 0.058457706
-0.024384866 0.001491007 0.013447905 0.00280001 -0.0004527843 0.027431937 0.0033336207 -0.031064237
0.035764866 0.0021965536 0.005686336 -0.013873922 0.00871142 0.0031115857 0.004629506 0.0025135826
-0.040538855 -0.0010247338 0.003456117 -0.03064586 0.0006070516 -0.039146937 0.0039319033 -0.01088653
-0.016319703 0.017429473 0.0031069359 -0.008738887 0.0028885722 0.030592717 0.009162623 -0.056527957
-0.05582302 -0.017170891 -0.031949405 0.0390766 -0.10837338 0.07808392 -0.03756558 -0.054172244
0.037937105 0.060573623 -0.042946007 0.04227537 0.0031269498 0.042926658 0.03964789 0.048923403
-0.03257199 -0.09305685 0.08202468 0.034519173 -0.019567398 0.03308984 -0.0760211 0.043359786
0.056635126 -0.0641796 0.056074027 0.0024539202 0.046903983 0.03347337 -0.06411187 -0.016291559
-0.054063514 0.061083462 -0.002440386 0.056359705 -0.0739957 0.07026276 -0.01617892 0.05692277
0.019012919 -0.06907178 0.026622782 0.005436128 -0.08025159 -0.045239635 0.055138644 0.01562744
0.016029878 -0.043047126 -0.019521756 -0.0243518 0.051663097 -0.0008780965 -0.000798437 0.0027176135
0.052487884 -0.03725142 -0.07844306 -0.010983409 -0.05021916 0.05181289 0.02184145 0.0049216393
-0.012256458 0.03507913 0.011826902 -0.018283801 -0.049643345 -0.033437073 0.049181625 -0.0496926
0.04807357 0.009210407 0.020672405 -0.03889853 -0.022137746 0.05506069 -0.026712604 -0.042565893
0.030394876 0.05455194 0.030843353 -0.00023924232 0.025707353 -0.016578954 -0.019988136 0.013139994
-0.07237153 0.07670717 0.0040538455 -0.017303921 0.04501645 -0.045722444 0.00051323883 0.037256807
-0.02511499 0.014842906 0.04766248 -0.0019839 0.0423204 0.020334458 -0.057033114 0.039667234
0.051552687 -0.06271017 -0.0378058 0.018088968 -0.014311646 -0.038083322 -0.0045026955 -0.015541665

conv1.bias f4 [16]
00000000: 3bd2 f8af f96d d430 4443 95ae b399 3aae
00000010: 7112 d1b0 3da4 c72f f3df f830 5664 04af
00000020: 18b1 b830 ebb1 0b31 6b14 73b1 c1a9 32b1
00000030: 1f70 2db0 d2b5 c42f d03d 892f d80b 8b2f
-4.5260315e-10 1.5456286e-09 -6.787684e-11 -4.2428016e-11 -1.5211993e-09 3.6314587e-10 1.8108025e-09 -1.2040977e-10
1.3438095e-09 2.0328297e-09 -3.537276e-09 -2.5998903e-09 -6.3096367e-10 3.5781383e-10 2.4964075e-10 2.5292368e-10

bn1.weight f4 [16]
00000000: 3d2f e93e bbd6 d73e d48c 1c3f 7157 223f
00000010: daa2 0d3f 8e05 fe3e ab47 ea3e 9309 e43e
00000020: 3e27 ff3e 1c6a 133f 3723 ff3e fabe 1d3f
00000030: 89cc e53e e04b d73e 1e70 1d3f 5beb d83e
0.45543852 0.42156014 0.61152387 0.63414675 0.55326617 0.49613613 0.45757803 0.44538555
0.49834627 0.57583785 0.49831554 0.6161953 0.4488261 0.42050076 0.614992 0.42367062

bn1.bias f4 [16]
00000000: 582d 8c39 2efe 9bb8 72e3 133a f8c7 c437
00000010: 862b ed39 ad7c 973a 5872 f038 614c bb39
00000020: f71a 1339 f2d3 ad39 5d0f fc39 66d0 1c3b
00000030: 4487 5f39 0758 e839 5cdf 013a f30c 3039
0.00026736665 -7.4383206e-05 0.0005641497 2.3458138e-05 0.0004523659 0.0011557542 0.0001146539 0.00035724326
0.00014029058 0.00033155043 0.00048076632 0.0023927926 0.00021317328 0.00044316074 0.00049542426 0.00016789492

bn1.running_mean f4 [16]
00000000: 9433 083d a8a0 6abc 8630 a33c b6f5 d43c
00000010: d058 a73b 26f8 f03c ee6c d1bc eccc fe3c
00000020: 8b00 2d3d 19ed 3cbc facd 78bb f5b6 cc3c
00000030: d9dc 43bd cd5a c13c f6c3 613d 3f9e 88bb
0.033252314 -0.01432053 0.019920599 0.02599607 0.005107023 0.029415201 -0.025564637 0.031103574
0.042236846 -0.011531138 -0.0037964568 0.024989584 -0.04781804 0.023602867 0.055118524 -0.004169255

bn1.running_var f4 [16]
00000000: 3b4f a43a 6db4 b639 b377 803a d9c1 073c
00000010: 44ca f93a c318 b43b 0a24 013a 0da6 1d3b
00000020: 0845 1b3b fdf6 243b 24f8 dd39 b3b1 313b
00000030: 7863 203b 01d5 3f3b fefc 0a3b 2690 f83a
0.001253582 0.00034848173 0.0009801298 0.008285963 0.0019057472 0.005496116 0.000492633 0.0024055273
0.002369227 0.002517163 0.00042337284 0.0027113974 0.002447335 0.0029271247 0.0021207924 0.0018963858

conv2.weight f4 [32, 16, 4, 4]
00000000: 2f12 2cba 8f46 acbc bcf2 76bb 9375 dc3b
00000010: ff91 3fbb 5bb4 78bc deb2 313b 9e2d bcbb
00000020: 11b7 743c 9e66 8dbc 985b cc3b a153 683b
00000030: c8dc 31bc f3c4 9bbc 63b2 2d3c dc66 603a
00000040: 58a4 df3b 50aa 4dbc 32fc ae39 dafa b53b
00000050: c397 dfbb 3d64 1abb 8d56 0e3c 47fd 5a3b
00000060: 6d69 00bb 892a 3c3c f523 3dbb 03c5 04bc
00000070: 68ed d4bb 340b 9dbb 0897 48bb 5d49 243c
00000080: 590d 57bc e1bc 9fbb ed9c 61bc 8a8c 723a
00000090: 8e53 06bc 9f73 3bba 0f9d cd3a 0e35 c93a
000000a0: ce98 a7bc d581 893c 7e51 20bb aac6 8abb
000000b0: 5129 f4ba 4726 ad3c f614 003c 63cb a9bc
000000c0: 3f73 3b39 ab1d d5bb 36e6 b4ba 4263 baba
000000d0: 1930 5cbb ebac 0c3c c5e8 653a 943b 08bc
000000e0: e004 0f3c bdf0 5c3c 8818 653c c529 12bc
000000f0: 5e9f 8d3c d20b 5abb 52f4 173c a942 f33a
00000100: 9fb4 86bb bef5 dcba d7f3 91bb 9f21 1d3b
00000110: 36a9 133b 2fa3 47ba 14e5 d2b9 f7fc cd3b
00000120: 7f3e 01b8 2b1d 6439 670f 92bc 4c14 3ebc
00000130: 4405 f8ba dab1 4ebb 7abc 3ebc 0aee 893c
00000140: 1060 1abc 087a e6bb 64fb 28bc 3cb6 fd3a
00000150: 9185 ad3b c587 063c 523c 2d3b 90fc 64ba
00000160: 0b9f b839 639b 7f3c 53e7 a33c 0cbb c03b
00000170: 301b 3c3b 728e 673a ba6d 4c3c 7af0 723a
00000180: 02cf 583a 7b5b 093c e51b d1bb 9b69 3d3b
00000190: 361b 973a b4cf ffba 80e5 66bb 1d7e 4fb9
000001a0: 4a34 e2ba 13de dab9 49a3 48bb a839 e9ba
000001b0: 35b6 e83a 3734 3dba d3bf 06ba fdc3 6637
000001c0: f0d6 ff39 4f46 29bb 20bf 4a39 8cca c9b8
000001d0: 4528 26b7 07be 3138 d582 3939 09da 10bb
000001e0: 0b76 cd3a 56fe 4b39 f342 e539 a380 8e3b
000001f0: 650f 213b 3b38 a63b bc14 96ba 9efe fa3b
00000200: 38ff 9839 6646 a83b 0f2d 86bb cd98 20bc
00000210: fd76 003c 2973 9439 95aa cb39 15b6 383a
00000220: defa 5d39 9b2d e0ba 9ee9 9bb9 c880 fc3b
00000230: 5b51 36ba 7582 383b 5d28 c8b9 2da4 033a
00000240: 7be5 3fba 2dca 863a a6f9 0a3c da49 993c
00000250: 75f4 973b 8444 b93b 39eb 2d39 a38c 7d3a
00000260: 8314 8f3b 87d7 f23a 16a1 3fbb 9fe5 c83a
00000270: cfa9 ea36 0c87 73bb 2c51 81b9 2cfd acba
00000280: 2feb dbbb 2071 383b 3d56 903c 75b5 32bb
00000290: 2983 42bb 9f64 0ebc b46f 3a3a 583a abbb
000002a0: 9274 f83b f392 1c3c 8b3a acbb ef48 813a
000002b0: 7404 623b af20 6f3c 20b3 333c b0dc 6f3c
000002c0: 49c0 fd3b e70f 83bb c703 9fbb f0b8 68ba
000002d0: 797b 0abc 06fb e5bb 38f3 d43a ffce af38
000002e0: 51db 37bc 70b4 b8ba 1dd0 89bc 47ca f93b
000002f0: 5bc0 4bbb 21b0 173c 7b9f 913a d2e6 f33b
00000300: f9a6 f1bb b35b f837 ef08 8bbb d95b 133c
00000310: 453c a83c 05e5 60b9 0ea8 40bc 9e2f b4bb
00000320: 8a99 603c 101c 24ba 794c 0c3c 6410 4b3c
00000330: 75c9 6ebc d279 023a 87c9 93bb b305 5539
00000340: 2b0f ee39 6f0d be39 31e5 d83b 0cb8 3b3c
00000350: 0607 26b8 30d9 2cbc ba9a 3f3b 7aa7 01ba
00000360: 7a4d 2b3a a6e9 913a 5ebf 973a fa59 713b
00000370: 99a4 993a 5cfc 32ba 40cc 763a 25bc 3cbb
00000380: 3e21 95bb 42ba 1dbc 3887 823b 047a f43b
00000390: c985 503c 651d 2a3c 795e f63b b214 8d3a
000003a0: dbd4 b6bc 68f1 4abc 229e 563c f93f a03c
000003b0: d25b 2cbc 7e79 5dbb b5c9 133c 0df9 023c
000003c0: 0b33 fd38 1510 03bb 8064 2f3b 14d2 dd3c
000003d0: 1299 c43a 36da 4139 056b 82bc 3a46 49bc
000003e0: 908c 3937 7a8e be3a 34d3 1a3b 6535 df3b
000003f0: f8a3 263c cdd0 103a 6cdc 3139 7f47 e0bb
-0.0006563989 -0.021029739 -0.0037681302 0.006727883 -0.0029231308 -0.015179719 0.002711467 -0.0057427427
0.014936225 -0.017260846 0.0062365048 0.0035450237 -0.010855861 -0.019014811 0.010601613 0.0008560249
0.006825011 -0.012552813 0.00033375766 0.0055535855 -0.0068235113 -0.0023558282 0.0086876275 0.0033415125
-0.0019594089 0.011484751 -0.0028860543 -0.008103612 -0.0064980276 -0.0047925953 -0.00306076 0.010027257
-0.013125741 -0.004874811 -0.013770324 0.00092525093 -0.008198632 -0.0007150713 0.0015687066 0.0015350895
-0.020458605 0.016785542 -0.0024462636 -0.0042351084 -0.0018628036 0.021136416 0.0078174975 -0.020726865
0.00017876642 -0.006503781 -0.0013801518 -0.0014220255 -0.0033598004 0.008586149 0.0008770342 -0.008314986
0.00872919 0.013485131 0.0139828995 -0.008921091 0.017287906 -0.0033271206 0.009274559 0.0018559295
-0.004110887 -0.0016857905 -0.004454117 0.0023976339 0.0022531278 -0.0007615564 -0.00040224998 0.0062862593
-3.08142e-05 0.0002175464 -0.01782961 -0.011601519 -0.0018922468 -0.0031539113 -0.011641616 0.016837139
-0.009422317 -0.00703359 -0.010313842 0.0019356678 0.0052954634 0.008211081 0.0026433659 -0.00087351445
0.0003521371 0.015601012 0.020007765 0.0058816727 0.0028702728 0.00088331767 0.012477333 0.0009267401
0.00082705927 0.008383627 -0.006381499 0.0028902057 0.0011528495 -0.0019516856 -0.0035232008 -0.00019788039
-0.0017258015 -0.00041745658 -0.0030614904 -0.0017793672 0.0017754497 -0.00072175585 -0.00051402784 1.37547e-05
0.0004879753 -0.002582926 0.00019335421 -9.622154e-05 -9.903747e-06 4.2377065e-05 0.00017691714 -0.0022102615
0.0015675438 0.00019454336 0.00043728165 0.004348831 0.0024575826 0.005072621 -0.0011450271 0.0076597473
0.00029181852 0.0051353453 -0.004094727 -0.009802056 0.007840869 0.0002831456 0.0003884627 0.00070461753
0.00021169658 -0.0017103435 -0.00029737962 0.0077057816 -0.0006954872 0.002815393 -0.00038177046 0.00050217175
-0.0007320267 0.0010283642 0.008482372 0.018711973 0.004637296 0.0056539197 0.00016586193 0.00096721406
0.004366459 0.0018527367 -0.0029240302 0.0015327221 6.9935118e-06 -0.0037159352 -0.00024665275 -0.001319801
-0.0067113857 0.00281436 0.017619247 -0.0027268801 -0.0029680228 -0.008690982 0.0007111982 -0.005225461
0.0075822556 0.00955652 -0.0052560023 0.0009863655 0.0034487518 0.014595195 0.010968 0.014640018
0.0077438694 -0.0039996984 -0.004852745 -0.00088776555 -0.00845229 -0.0070184497 0.0016246801 8.383206e-05
-0.011221723 -0.001409186 -0.016822869 0.0076229903 -0.0031089995 0.009258301 0.0011110151 0.0074432874
-0.007374641 2.9606605e-05 -0.0042430083 0.008994066 0.020536551 -0.00021447621 -0.011758817 -0.0054988405
0.013708482 -0.0006260285 0.008563154 0.012394045 -0.014574398 0.0004977259 -0.004510108 0.00020315386
0.00045406198 0.00036249633 0.0066191186 0.011457454 -3.9584025e-05 -0.010549828 0.0029236511 -0.00049459154
0.0006534677 0.0011132255 0.0011577418 0.0036827312 0.0011722028 -0.00068277656 0.0009414591 -0.0028798666
-0.004551082 -0.009626927 0.0039834045 0.0074608345 0.012727209 0.010382985 0.0075185862 0.0010763614
-0.022318294 -0.012386657 0.013099225 0.019561755 -0.010519939 -0.0033794339 0.009020259 0.007993949
0.000120734876 -0.00199986 0.0026762784 0.027077712 0.0014999232 0.00018487204 -0.015920172 -0.01228481
1.10595865e-05 0.0014538311 0.0023624422 0.006811785 0.010170929 0.0005524278 0.00016962149 -0.0068444605

conv2.bias f4 [32]
00000000: 779b afb0 6cd1 08af 6f89 5db1 d182 6630
00000010: 1eda 1230 06ce a6af b719 b130 38fa f82e
00000020: 5f71 25b1 1e0d 0432 fbd0 19ae 589d 56b0
00000030: 77b9 8330 cc92 c2af 5a19 f32f fd72 552e
00000040: 811f 2631 1b55 a8af d580 a730 674c c7b0
00000050: 886d 0130 7afd 8930 a1e5 bc2f ff84 4d30
00000060: f2e9 622f fca3 85b0 be38 c4af 6974 5caf
00000070: 7f05 c02f ff8b 9930 44ce 3daf 6ee7 27b0
-1.2777112e-09 -1.244353e-10 -3.2237855e-09 8.3859414e-10 5.3424454e-10 -3.0341613e-10 1.2885754e-09 1.1322182e-10
-2.4075104e-09 7.686394e-09 -3.4973784e-11 -7.8076345e-10 9.584217e-10 -3.53927e-10 4.4219456e-10 4.8532723e-11
2.4174087e-09 -3.0619493e-10 1.2187465e-09 -1.450087e-09 4.708558e-10 1.0040104e-09 3.4360162e-10 7.4767564e-10
2.0637694e-10 -9.723631e-10 -3.569251e-10 -2.005024e-10 3.4928502e-10 1.1172004e-09 -1.726273e-10 -6.108313e-10

bn2.weight f4 [32]
00000000: 8782 ef3e 2689 dc3e 41d8 d53e 4b49 d13e
00000010: 51dc ee3e 66d7 e13e 7ad3 f23e 735b e03e
00000020: 6e35 f43e 9acf ea3e efb0 eb3e bfd1 f23e
00000030: 1192 d93e 5be6 0a3f d6f5 d73e 50bd dc3e
00000040: 2ac9 0a3f a4a2 063f 6ba3 e73e b100 e93e
00000050: 8322 d63e f1b8 0f3f 93ab e63e 60ca 0f3f
00000060: 2c02 f53e 893f de3e d792 f03e 25db 123f
00000070: 1da3 063f e2ee e23e 9f3e 023f b3d3 003f
0.46779272 0.43073386 0.4176655 0.4087623 0.46652463 0.44109648 0.4742697 0.4381977
0.47697014 0.45861512 0.46033427 0.4742565 0.42494252 0.54257745 0.42179745 0.43113184
0.542132 0.5259192 0.45241866 0.4550834 0.41823205 0.56141573 0.45052776 0.56168175
0.4785322 0.43407848 0.4698703 0.5736564 0.5259264 0.44322878 0.508768 0.5032303

bn2.bias f4 [32]
00000000: 509a 1d3b eeaa c139 ad1b e838 2f16 3339
00000010: ea6b b439 c96b 84b9 1e34 103a b5b0 c93a
00000020: 2570 9db9 7963 9939 9deb 0e3a 06cd f239
00000030: 4d58 1f3a 2954 c73a 58c6 393a 0f8a a63a
00000040: 091d e6ba 4ed0 d839 65cf 393a e292 2c3a
00000050: 188c 223a 5b9b 113b 9aa4 f439 a3c5 3a39
00000060: 67dd e1b9 9f01 633a 74e2 2c3b 6309 aa3a
00000070: ff31 c4b6 4e8a 453a f01f b33a 7442 bb3a
0.0024048276 0.0003693918 0.00011067777 0.00017079034 0.00034412678 -0.00025257308 0.000550093 0.0015387746
-0.00030028928 0.00029256547 0.0005451979 0.0004631059 0.00060785265 0.0015207577 0.00070867455 0.001270594
-0.001755626 0.0004135393 0.0007088094 0.00065831665 0.0006200685 0.0022217843 0.00046661944 0.00017811968
-0.00043080302 0.00086596044 0.0026380094 0.0012972768 -5.8470755e-06 0.00075355626 0.0013666134 0.0014286772

bn2.running_mean f4 [32]
00000000: 484f 423c f814 103d afce 5dbc f5c2 513c
00000010: e84c 8f3c e9d1 873d 9df3 463c 6783 9e3b
00000020: a79c b63b 5f9d 023c f851 12bc 8195 0a3d
00000030: d5c6 013d f9e8 653d dba0 1c3d c18b 813c
00000040: 574f fe3b 2255 603d 2361 2c3d 02a4 963b
00000050: 01e6 ea3c 393d 313b 18be 0fbd 451e 603d
00000060: 1baf b53c 41a2 2b3c aa41 dd3c 10d1 113d
00000070: d4f3 15bd f344 923d 3edd 123d d52c c8bc
0.011859722 0.035176247 -0.013538047 0.012802829 0.017492726 0.06631834 0.012143043 0.0048374417
0.0055728736 0.0079720905 -0.008930676 0.033833984 0.03168376 0.056130383 0.03823934 0.01581371
0.007760923 0.05476869 0.042084824 0.004597188 0.028674128 0.0027044548 -0.035093397 0.054716367
0.022178223 0.010475696 0.02700885 0.03559977 -0.036609486 0.07142057 0.035855524 -0.02443544

bn2.running_var f4 [32]
00000000: 3e07 8b3b 29e1 273b 0eec c23a ad04 7c3a
00000010: 7aa2 293b 2268 063c d68f c63a b44d fc3b
00000020: 1ff7 333c 7a90 513a 2304 8b3b 1cb9 df3b
00000030: 6fe2 d03a 57b6 0c3c fc4e 063c 4745 2e3b
00000040: e7f3 703b 9897 b73b cdbf 2a3b 9072 373b
00000050: 3732 953b bbab 763b 24c6 553c c03f 423c
00000060: cfcd 613c a5c4 bc3a 3331 b43a 2a83 833c
00000070: 9a17 7c3c e96a fb3b 6e7d 3e3b 0bfb 783c
0.0042428067 0.0025616384 0.0014871375 0.0009613734 0.0025884197 0.008203538 0.0015149068 0.0076996926
0.010984211 0.0007994246 0.0042424365 0.0068274867 0.0015936623 0.008588395 0.008197542 0.0026591585
0.003676647 0.005602788 0.0026054264 0.0027991869 0.004553105 0.003763898 0.013047729 0.0118560195
0.013781979 0.0014401866 0.0013747573 0.016053755 0.015386486 0.007672657 0.002906646 0.015196572

conv3.weight f4 [64, 32, 3, 3]
00000000: 35bb 8ebb d89b 16bb cbfb 5c3c c49e 7aba
00000010: 0a26 c03a 2237 d5bb 7d1c 65ba 0625 58b9
00000020: 2f9a 8bba e925 0d3b 5bc5 37bb 8aad ecbb
00000030: ed02 3139 9baf 243b f492 2aba 2aca 2d3b
00000040: 34b8 2abb f693 78ba 9de5 cfbb b240 ba39
00000050: 3472 2bba 5d86 1f3c f7c2 b6bb fb47 62ba
00000060: 1d86 233b c40d 13bb 0c80 46b9 1d75 be37
00000070: d13a 64b7 b27a 17b9 81e3 a139 41e9 863a
00000080: 1c18 1aba 4179 943a 20ad bcb7 bed2 3a3a
00000090: 8e1c e037 7981 bc3b b932 443b 180c 04bc
000000a0: b09f 71bb 5143 52bb b271 4b3b 722b 86ba
000000b0: 8593 b7b9 b510 04b9 1423 7db6 ae19 aa37
000000c0: b643 e9bb 0c63 5f3b b5c3 86b9 16c4 053c
000000d0: 1384 3fb9 f63c 1dba aa04 9a3a b6ca 10bb
000000e0: 7103 fc38 6fa4 03ba ec5b a0bb 6cfe 483c
000000f0: 5125 92b9 acc6 923a b842 32bc 1d0a 3f3b
00000100: 0e76 cbbb 6915 69bb d91d ddbb 614a 03bc
00000110: 59b8 45bc f6c0 0239 8591 3dbb 4b2a afbb
00000120: 7ae4 b63a c360 b1bb 3653 7fbc b0b3 d93a
00000130: 97c1 82bb 35b2 48bc 8feb 203a 981b 3abc
00000140: d058 41bc 8748 8ebb a7f1 6bbc 31e7 b7ba
00000150: 224a c1bb 7f3d 60bc d2d6 d7ba c7a1 a03a
00000160: 51e3 c33b f98b f9ba 93f1 3939 0991 48ba
00000170: 191d 3f39 a7a9 bbbb dc66 4dbb 45ce 4ab9
00000180: 1d5a 58ba b430 37ba 5292 7eba cdb8 e1b9
00000190: 402d 2dbb d379 d5bb 35eb 0fbc 4f06 f93b
000001a0: 5017 ad3a 2ed9 d9ba 42d7 a73b b73c 9f3b
000001b0: 1e12 0cbb 2d1f 143a b9d7 a3ba cdd4 e2bb
000001c0: 3d13 94bb d012 b73a 4089 8a39 2916 37b9
000001d0: ab9a 78bc 635f f338 5b4b 27ba a63e 09ba
000001e0: aedc c1b7 23e0 cd39 c3fb 0cba ae6b 023b
000001f0: 3f16 2f39 d73e 2eba adde 33b9 61d9 04ba
00000200: b49f d5ba 4dfa db3a cb65 a7b9 b9ad 26ba
00000210: 29fb 4f3c dcf5 39ba 675b 56ba 9cfa a5bb
00000220: 19e5 aaba f0b5 a8ba 3b20 7fbc cfc7 09bc
00000230: 042f 983a 0c51 d53b a6dc e7ba 312b d73b
00000240: 5ad7 1abc 4d3a 8f3c 5785 513c 5a0d b93b
00000250: d2e1 a53b 270b 703c e59f de3b 5524 ccbb
00000260: 2cd0 3ebc 64cf 9d3b 53e1 e1bb 92c2 b338
00000270: c97c 883a e799 9c3a f9d6 d1bb 2ccb 26bb
00000280: 5a02 8cbb d63c 213c 66d9 7039 08f9 59b9
00000290: 587c e23a 1e67 94b8 6722 b13a 1088 9738
000002a0: 7089 7439 c91c 9fba bcaa 41ba bd7b 473b
000002b0: 9122 3b3b 3785 53ba 369f 88bc 0927 203b
000002c0: db83 d83a dde3 6d3b 454b 133c 41c1 c63a
000002d0: 193f 9cbb 2372 f4bb 25d4 d6ba 2782 0ebb
000002e0: 5027 9dbb 48cb a23b 9477 9939 1e70 b5ba
000002f0: d2b5 a3ba 3cf5 26ba c9b5 27ba 0c72 923b
00000300: 25a6 63b9 c110 e0ba 97e9 13bc a2ba 8739
00000310: f02e 0dba 791c 56b9 aeb9 e0b9 57eb 0fba
00000320: 984d 9cb9 2442 78ba 1a03 45ba 15ea 9fbb
00000330: 6b0c 4ebb 561d 513a cbf7 72bb 9356 9a3b
00000340: 6ff9 f639 5e88 6d3c a31a 133c 4134 563c
00000350: 4309 b23b 67ca 6ebb f465 ddbb 8731 d0b9
00000360: 3238 bbbb e17f 32bb 1b83 bc3b 7a4a 12bb
00000370: 7f09 f1ba 77f8 27bc 48ff 54bb 7b6c 94ba
00000380: 7939 4b3c 90ef 4639 f57e 6eba 0d93 493a
00000390: 923f 97b8 e557 81b9 13a5 d8ba d323 10ba
000003a0: 6c77 a23a 139d e7b9 5c06 93bb b06e b83b
000003b0: 9b7a dfbb a60f 8cbb 5282 ae3a b14a 413c
000003c0: 322a 2cbc 79c8 79bb 217b 153c 8b76 65bb
000003d0: 1218 453a c8e2 e739 1098 68bb 2d6b 22bc
000003e0: e03a 943c 46c2 16bb 9d1b f83a efc2 53bc
000003f0: f972 f33b ac06 253b 72a1 57bb b69c dcb9
-0.004355813 -0.0022981074 0.0134877665 -0.0009560401 0.0014659774 -0.0065068165 -0.0008739902 -0.00020613158
-0.0010650809 0.0021537489 -0.0028041217 -0.007222836 0.00016881125 0.0025129083 -0.0006506883 0.0026518204
-0.0026049735 -0.0009482497 -0.0063445107 0.00035524886 -0.000654015 0.009736625 -0.005577441 -0.0008631942
0.0024951764 -0.0022438625 -0.00018930453 2.27043e-05 -1.3603553e-05 -0.0001444619 0.00030877817 0.0010292904
-0.00058782264 0.001132764 -2.2491964e-05 0.000712674 2.6716178e-05 0.005752739 0.002993746 -0.008059524
-0.0036868863 -0.003208358 0.003104311 -0.0010236336 -0.0003501439 -0.00012594725 -3.7720356e-06 2.0277537e-05
-0.0071186675 0.0034086136 -0.00025704285 0.008164426 -0.00018264381 -0.00059981586 0.0011750658 -0.0022093481
0.000120169374 -0.0005021756 -0.0048937704 0.01226769 -0.00027875093 0.0011198125 -0.010880165 0.0029150315
-0.0062091416 -0.003556574 -0.006747943 -0.008013339 -0.012067878 0.0001246965 -0.0028925848 -0.005345618
0.0013953589 -0.005413146 -0.015583804 0.0016609337 -0.003990363 -0.012249519 0.00061386166 -0.011359118
-0.01180096 -0.004342142 -0.014400876 -0.0014030692 -0.00589873 -0.013686537 -0.001646722 0.0012255245
0.005978026 -0.0019038907 0.00017732968 -0.00076510065 0.00018226019 -0.0057270112 -0.0031341827 -0.00019341063
-0.0008253174 -0.00069881533 -0.00097111345 -0.00043053032 -0.0026424676 -0.0065147667 -0.008784105 0.007599629
0.00132058 -0.0016620511 0.0051220963 0.0048595327 -0.0021373103 0.00056503975 -0.0012500203 -0.0069223405
-0.004518895 0.0013967399 0.0002642367 -0.00017460495 -0.0151735945 0.0001160491 -0.0006381773 -0.00052354706
-2.3110155e-05 0.00039267642 -0.00053780916 0.0019900608 0.00016697588 -0.0006646937 -0.00017153723 -0.00050677924
-0.0016298206 0.001678297 -0.00031928564 -0.0006358284 0.012694159 -0.0007093826 -0.0008177072 -0.0050652754
-0.0013038247 -0.0012871604 -0.015571649 -0.0084094545 0.0011610691 0.0065099057 -0.001768966 0.006566428
-0.009450758 0.017483855 0.012788138 0.0056473436 0.0050623203 0.014651096 0.0067939633 -0.006229917
-0.011646312 0.0048159827 -0.006893316 8.571627e-05 0.0010413165 0.0011947722 -0.0064038006 -0.002545069
-0.0042727413 0.009841165 0.00022969171 -0.00020787504 0.0017279489 -7.076397e-05 0.0013514281 7.225585e-05
0.00023320853 -0.0012139316 -0.0007387807 0.0030438744 0.0028554539 -0.0008068862 -0.01667748 0.002443733
0.0016518788 0.0036299147 0.008990114 0.0015163795 -0.004768264 -0.007459895 -0.0016390128 -0.0021745057
-0.004795946 0.0049680807 0.00029271527 -0.0013842618 -0.00124901 -0.000636894 -0.00063976325 0.004469162
-0.000217103 -0.0017094837 -0.00902786 0.0002588826 -0.00053857174 -0.00020419237 -0.00042862952 -0.00054900855
-0.0002981245 -0.0009470305 -0.0007515416 -0.0048801997 -0.0031440507 0.00079770887 -0.0037073966 0.0047100275
0.0004710662 0.0144978445 0.008978519 0.013073982 0.005433233 -0.003643656 -0.0067565385 -0.00039709752
-0.005713486 -0.0027236866 0.0057529337 -0.0022322224 -0.0018389671 -0.01025211 -0.0032500792 -0.0011323834
0.012403839 0.00018971995 -0.00090978976 0.0007689454 -7.212082e-05 -0.00024670284 -0.0016528688 -0.0005498502
0.001239521 -0.00044176783 -0.004486842 0.0056284294 -0.0068200356 -0.0042743264 0.0013313985 0.011797593
-0.010508107 -0.0038113876 0.0091235945 -0.0035013284 0.00075185404 0.0004422872 -0.0035491027 -0.009913248
0.01809448 -0.002300398 0.0018929128 -0.012924894 0.0074294773 0.0025180979 -0.0032902625 -0.0004207843

conv3.bias f4 [64]
00000000: a94e 3eb1 fc1d 1db1 71d5 1931 8bdd 4c32
00000010: 3623 0131 3085 3b31 b5f2 8330 99e3 022f
00000020: e361 8031 c304 3d31 da23 e6b0 8a89 2d31
00000030: 1da3 a731 12ec 0930 012f 87b0 409b 92b1
00000040: c955 91b1 08d1 c9b1 2ce6 e3b0 7ab9 6fb1
00000050: a5e9 27af 26b9 ceb0 d283 b330 8783 ebb2
00000060: 6c29 a730 4806 1531 055c ea31 62bd 43b1
00000070: a853 8731 e717 9d30 60e8 7130 992f 6731
00000080: 8a41 4031 bf53 45b1 5712 c0b1 4294 abaf
00000090: 9be3 2431 681a 4631 7b61 6e31 1b44 8cb0
000000a0: c017 f9b0 1d87 8332 9c5d 8331 e91e 8aae
000000b0: 434d 1cb2 08e1 08b1 352e 84b0 9cb5 44b0
000000c0: 199f 72b0 b8ea ca31 fd5a 9430 784d 7a2f
000000d0: 074a d731 a236 c830 2ad0 60b0 d721 90b0
000000e0: 2966 4d30 a884 992e 6011 d830 2958 c831
000000f0: fd98 86b2 61cb 54b2 2255 96b1 5c9e 5bb0
-2.7693352e-09 -2.286355e-09 2.2385758e-09 1.1924736e-08 1.8791986e-09 2.728779e-09 9.600486e-10 1.190429e-10
3.7364187e-09 2.7505827e-09 -1.6744892e-09 2.5252995e-09 4.8788835e-09 5.0175786e-10 -9.835902e-10 -4.266809e-09
-4.229808e-09 -5.873634e-09 -1.6581843e-09 -3.4884509e-09 -1.5271569e-10 -1.5041095e-09 1.306143e-09 -2.7417412e-08
1.2162622e-09 2.1685924e-09 6.8207577e-09 -2.8483886e-09 3.9385277e-09 1.1430047e-09 8.8005514e-10 3.364198e-09
2.7976932e-09 -2.8714877e-09 -5.5900204e-09 -3.1210062e-10 2.399452e-09 2.8827802e-09 3.468897e-09 -1.0205697e-09
-1.8123885e-09 1.531185e-08 3.823244e-09 -6.281004e-11 -9.097962e-09 -1.991852e-09 -9.617397e-10 -7.1562467e-10
-8.826518e-10 5.905658e-09 1.0794278e-09 2.276489e-10 6.2657395e-09 1.4567443e-09 -8.1786544e-10 -1.0486997e-09
7.4723744e-10 6.981199e-11 1.5721007e-09 5.8307887e-09 -1.5669224e-08 -1.2386267e-08 -4.375253e-09 -7.989678e-10

bn3.weight f4 [64]
00000000: 8d58 dd3e 9fce d13e fe8e d83e 025c db3e
00000010: 52c8 d33e 3f89 db3e d1b5 d83e 1768 fb3e
00000020: 1761 de3e ef50 db3e 0003 003f 4316 e23e
00000030: bfc0 ed3e 4550 d83e 7f59 e53e cb59 dc3e
00000040: c07a f43e c43c dd3e 072b d03e 1aaa d13e
00000050: fe76 cc3e c512 d13e 2691 ca3e f903 d63e
00000060: c4c4 d63e 177b d33e 469a 093f 73ab d43e
00000070: 4fea eb3e 08fb d13e 3032 e43e c916 e13e
00000080: c34d d53e 0bd6 d73e 3039 d23e ceb8 de3e
00000090: 7507 cd3e 4b89 d83e ca5e 0a3f 3b5e f63e
000000a0: f38e d83e f8b6 e03e ec5a d83e 8fee e03e
000000b0: cfed ca3e 17a6 033f ced9 cf3e e281 e13e
000000c0: 085e d13e bf36 033f 9523 e23e ba6a d33e
000000d0: 89e2 e73e b5ec de3e 7870 da3e b381 063f
000000e0: 9783 f53e c333 f23e 0a4a d53e 9c20 e83e
000000f0: d335 cf3e 3deb dc3e 0afa d73e f94a f93e
0.4323162 0.40977952 0.42296594 0.42843634 0.4136377 0.42878148 0.42326215 0.49102852
0.4343345 0.42835185 0.5000458 0.4415761 0.46436116 0.4224874 0.44794843 0.43037257
0.477499 0.43210423 0.40657827 0.4095009 0.39934534 0.40834633 0.39563864 0.41799906
0.41946995 0.41304848 0.5375103 0.41537055 0.460772 0.41011834 0.4456954 0.43962696
0.4166089 0.4215549 0.41059256 0.4350037 0.40044752 0.42292246 0.54050887 0.48118767
0.42296562 0.43889594 0.42256868 0.43932006 0.3963456 0.5142531 0.4059586 0.44044405
0.40892053 0.5125541 0.44167772 0.41292363 0.4529002 0.43539968 0.42663932 0.52541655
0.47951958 0.47305116 0.4165805 0.4533738 0.40470752 0.43148223 0.42182952 0.48690012

bn3.bias f4 [64]
00000000: cf36 83b8 acad ab36 0413 9939 e405 8037
00000010: 6967 0639 d295 5839 df91 1239 bf3f 99b9
00000020: 4e6d 7439 1bde f3b6 93b8 38b9 36e2 8a39
00000030: 6a4c 9c39 39f2 f738 5a2b 4d39 d807 9738
00000040: eba5 a337 4bc3 6db6 9f0e a3b8 eb96 66b8
00000050: 01cc 3137 3016 00b9 1ed8 3f39 9af5 23b8
00000060: bf6e 013a 455d 1ab8 625b 78ba 2263 2eb8
00000070: 63d6 6039 7452 fdb8 fc68 3239 1179 7439
00000080: 8e5f 2939 5c06 6239 128f 6438 e5be d736
00000090: 5c88 80b8 3981 6539 3711 a039 2d67 d438
000000a0: e1ac f038 a8d1 b539 ef64 01b6 fe9e 2c39
000000b0: 9910 32b7 fcb9 e139 83ff 7d39 46ba 4139
000000c0: 36e9 5338 3752 d7b8 f699 de39 a896 0a39
000000d0: 870a 0cb9 93f3 b6b7 7d83 f8b8 75ea bb39
000000e0: d976 5538 4bfa 6239 6154 4439 bb21 d5b9
000000f0: 7818 89b8 970a 0fb9 1e41 1639 e03d 68b8
-6.256776e-05 5.116415e-06 0.00029196602 1.5261532e-05 0.00012817759 0.00020655178 0.00013977986 -0.0002922993
0.00023310372 -7.267821e-06 -0.00017616367 0.0002648995 0.00029811572 0.00011822995 0.00019566473 7.201702e-05
1.9508376e-05 -3.5429427e-06 -7.775169e-05 -5.4976827e-05 1.05975205e-05 -0.00012215297 0.0001829569 -3.9090963e-05
0.0004937462 -3.6803325e-05 -0.00094740663 -4.1577157e-05 0.0002144217 -0.00012079338 0.00017014513 0.00023314754
0.00016152693 0.00021555409 5.449268e-05 6.4297224e-06 -6.1289145e-05 0.00021887281 0.00030530404 0.00010128166
0.00011476293 0.00034679216 -1.928125e-06 0.00016462427 -1.0613491e-05 0.00043053913 0.00024223146 0.00018475307
5.0523515e-05 -0.000102673126 0.0004245785 0.0001321683 -0.00013355362 -2.1809514e-05 -0.00011850053 0.00035842104
5.0893843e-05 0.00021646281 0.0001872345 -0.00040651657 -6.537227e-05 -0.00013641488 0.00014329373 -5.5370736e-05

bn3.running_mean f4 [64]
00000000: 1240 0abc 744f de3b 6e49 443c d548 aabb
00000010: 181f 833c 2382 403c 9c72 4d3c a14d 31bb
00000020: 11c7 103c 1ef8 173b 807a 29bc 88ae 933c
00000030: a4ff 5a3c e287 b73c 28a6 4d3c c49a 483c
00000040: e2bf 833c abe5 0bbc a062 cdbb 954f a3bb
00000050: 2810 133c d68d 513c 7a01 8f3c 03c2 54bb
00000060: 814f 8c3c 0c54 01bc 6802 b7bb e3cb f9bb
00000070: 83a9 a43c 115d 583b 07c3 663c 977b fc3c
00000080: f9ca 073c b9bf 903c a7e4 cb3b 0680 153c
00000090: 2645 95bb 2f8e 973c ebc4 113d 5ba8 9e3c
000000a0: 1a24 3a3c 0ead 9f3c 47ec 2f3b 98c9 ab3c
000000b0: 2429 ee3a 487f ea3c fc9e 173c 88d1 0d3d
000000c0: 97bb fd3b 5597 96bc 88d8 993c 82f7 963c
000000d0: 9fba 1b3c d073 cd3b 2949 033b 67a8 bd3c
000000e0: 203e 443c f715 a23c bf08 333c 6d70 9cbb
000000f0: 1586 033b 5437 93ba d1cb 823c 90b8 babc
-0.008438127 0.006784374 0.011980398 -0.0051966705 0.016006038 0.011749777 0.012539532 -0.0027054327
0.008836524 0.002318866 -0.010344148 0.018027559 0.013366614 0.022403661 0.012551822 0.01224393
0.016082708 -0.008538644 -0.0062678605 -0.004983852 0.00897602 0.012790164 0.017456759 -0.0032464273
0.017127754 -0.0078935735 -0.0055850036 -0.007623182 0.02010036 0.0033014456 0.014084584 0.030820651
0.008288139 0.017669545 0.006222326 0.009124761 -0.0045553623 0.018500416 0.035588186 0.019367388
0.011361146 0.019491699 0.0026843713 0.02097015 0.001817022 0.028625146 0.009254213 0.034623653
0.0077433097 -0.018382708 0.018780008 0.018428568 0.009504943 0.0062699094 0.002003262 0.02315159
0.011977702 0.019785864 0.010927378 -0.0047741444 0.0020068933 -0.0011231699 0.015966328 -0.022793084

bn3.running_var f4 [64]
00000000: 7909 393a cedf 3a39 7892 373a ef30 7138
00000010: f90f b73a 12ea e239 73b9 4b3a c506 013b
00000020: f744 a439 7c1d b639 f846 233a cfed 8e3a
00000030: 163e 3e3a be18 3a3b 9db1 df39 5ea5 293a
00000040: af80 ad3a aa9a de39 457c c339 858b 4a39
00000050: 859b 1a3a e422 833a b175 9c3a ecab 0539
00000060: 4d45 6b3a e7b5 6a39 8ff8 743a 03fc c539
00000070: 8aed b33a fba5 493a 79a7 5b3a 5a6f 893b
00000080: 7433 d539 206a cb3a ab7c 3739 5b08 213a
00000090: d779 8238 5046 7d3a a2e0 913b 3b2c 683b
000000a0: 2450 6d3a e560 9b3a 76da 1439 e8b5 123b
000000b0: c53c f538 3a2d 493b ae41 a839 bf24 883b
000000c0: 4c5b aa39 0e5c 6b3b 0bdf 803a e716 973a
000000d0: 83b6 b13a ab0b cf39 f770 063a 265a f83a
000000e0: a96c 2e3a 7be9 dc3a d5f6 a139 b817 7d39
000000f0: 091d 4a39 1243 f639 667d f63a 500a 1e3b
0.00070586015 0.00017821716 0.00070027215 5.750445e-05 0.0013966552 0.00043280475 0.00077714695 0.0019687873
0.000313319 0.00034735713 0.0006228532 0.0010904613 0.00072571763 0.0028396095 0.00042666207 0.000647148
0.0013237203 0.00042458373 0.00037285886 0.00019316196 0.0005897808 0.0010004905 0.001193693 0.00012747914
0.0008974865 0.00022383743 0.00093448994 0.0003776253 0.0013727408 0.00076922745 0.00083791424 0.0041941823
0.0004066486 0.0015519299 0.00017498682 0.00061429077 6.2215775e-05 0.00096616615 0.004451827 0.0035426754
0.00090527744 0.0011854438 0.00014195763 0.0022386257 0.000116938296 0.0030697123 0.00032092392 0.004154771
0.00032492948 0.0035913023 0.0009832097 0.0011527211 0.0013558421 0.0003949081 0.00051285274 0.0018947765
0.0006653765 0.001685425 0.00030892217 0.00024136796 0.00019275038 0.00046970748 0.0018805682 0.0024115033

conv4.weight f4 [128, 64, 3, 3]
00000000: 48fb 5db8 6a8d a238 c10a 0839 5d7f bcb9
00000010: 4b56 bb37 caf0 bab8 3e77 7bb9 89b2 efb8
00000020: 397b ff38 c123 0c3a 6079 993a bd7d 0d3a
00000030: 769e 123a 43ab 9738 a54d 8539 c818 63ba
00000040: 0795 e3b7 9fec e537 c6ba bcb7 9670 723b
00000050: 59a1 25b8 d0a6 29bb 2cdf fd3a a14e 7fba
00000060: d124 b139 e937 d939 1aed 4dba e83b 79b8
00000070: 5d59 3e37 c631 e238 61a6 bfb8 7318 5139
00000080: 5058 9238 a19f 97b8 e417 9cb7 151b c937
00000090: bb7d 9a3a 774f 6d39 12d8 8437 9651 533b
000000a0: 64f5 45bb 4273 8bb7 13e8 353a 6375 2539
000000b0: 640b e9b7 5910 4739 ccd9 38b9 3222 0438
000000c0: 8a36 6039 ed40 8038 1cbe bf38 475f bc39
000000d0: e748 f338 7ccd b4b8 d9fb ff39 cd40 9639
000000e0: c170 4139 9845 473a 015c 4d38 2740 0f39
000000f0: bcf4 6739 bb44 20b7 a699 5fb5 03ba cd3a
00000100: 87c7 0f3a 7f91 28b6 ae56 9f3a f3d2 023a
00000110: 4952 20b9 8967 22b9 0c12 32ba 3ea2 2839
00000120: 69f4 133a 5d6c 203a fbd8 a739 7e64 283a
00000130: 9099 5a39 059d 3139 426f a339 8841 7339
00000140: 3dfa 9a38 0f17 5539 9354 dcb7 d4eb 1bb8
00000150: ae82 3f39 a8a5 b639 a4a5 9237 05a0 ef39
00000160: 5942 6b39 553f aab7 6938 efbb 6e28 adbb
00000170: 315a 99bb 94f5 8abb 8707 993b 3269 fcbb
00000180: 3aff a2b9 d228 14bb d386 94bb 5da1 633b
00000190: 8a9b 723a 0407 44bb 3612 89ba 344e 5abb
000001a0: 6c20 033c ae86 22bb 31fc 87ba 511f 82bb
000001b0: 04a7 83ba 73bd 993b 4340 1ab8 621d d93b
000001c0: ab06 3dba 551a 063b d19a 25ba b6fc c23a
000001d0: 3d32 0ebb 6754 d6b9 5ecc f638 8c99 cfb8
000001e0: ed9e 9139 bb4e 8cb9 6c49 2139 d2ff 6339
000001f0: d83d 00b8 6dd7 c8b8 cf6b 7339 fa86 9939
00000200: 6566 fa3a 94bd de3a e0a3 303a 3bd5 cc3a
00000210: b33a e73a f63c 5c37 8cda 43b9 24fa b6bb
00000220: 7103 d33b 6249 24bc b0cd e7bb c825 3cbc
00000230: 8c60 903b 707f 19bb 981c 2b3c 315b 7a3b
00000240: f52f bf3a 7309 c8ba cbd0 a7b9 1446 3c3b
00000250: 1018 8cba cbaf 293a 56c1 95b9 064a 8339
00000260: 6625 ea39 98f7 21b9 9e38 30b7 31ae 7738
00000270: 83d1 54b8 9137 b1b9 6f6e 0eb7 f8c5 71b8
00000280: 78cb 7138 fb8f 0e38 31c8 17b9 42e1 96b8
00000290: e31d 0837 905c 40b9 f979 16b9 2a77 a0b8
000002a0: 33ce 0fb9 9b4f fdb8 b49c 86b8 b0b8 eeb9
000002b0: 595c 00ba f3f4 99b8 ace4 ebb8 e73b 1b39
000002c0: 65da 4439 ac52 eab7 a8a4 21b8 29d1 6438
000002d0: c6b5 5fbb 27f8 ee3a c2ca 0bba 5659 7f3a
000002e0: 2a84 9a39 ad3e d7b8 2820 36b9 5750 3439
000002f0: eb80 3b3a 6181 6439 fc65 c43a 9fba 2d3b
00000300: 97bb b839 4e4e 5eba 265a 3239 12b9 b03a
00000310: 4bb2 fa39 31c9 21ba 3f89 1c3b f07a 32bb
00000320: b69a 02bc e005 983a 1f3f 063c ba3f 853b
00000330: 2acb 123c e5bd 68bb 330b 7f3b cd4f 083b
00000340: 38b0 b6b9 bc63 aab9 c6b5 43b9 4f33 ba39
00000350: 505e a538 854b e039 a397 1039 fc8f 5eb9
00000360: 6e8f 1dbb bfb9 fcbb 4fa9 60ba 36be 313c
00000370: 872f 013c 3d66 8839 1d9a d139 1666 4b38
00000380: dc72 5a3b b980 aeb8 054d fbb7 da3b 7138
00000390: 567a 8439 0d5a f1b8 3b61 b437 0907 c0b8
000003a0: 5355 04ba 211c e037 1ece 84ba 73a7 83bb
000003b0: d8d7 b33a a1b2 e43b 77ae 57bb d5aa 593a
000003c0: 5189 183c 00f2 52bb 7137 8abb 407a 34b9
000003d0: 0f67 b338 a68d a935 8afd f0b8 c832 63b8
000003e0: 8ede 3738 bf8e 88b9 5bae 42b8 f65d d738
000003f0: 7572 23bc d976 c83a 6e95 70bb e3a0 bf3a
-5.292453e-05 7.7511024e-05 0.00012973977 -0.00035953047 2.233232e-05 -8.9140216e-05 -0.00023981647 -0.00011429663
0.000121822995 0.0005345904 0.0011709146 0.00053974596 0.00055930705 7.232141e-05 0.00025425587 -0.00086630555
-2.7129905e-05 2.7409113e-05 -2.249832e-05 0.0036993376 -3.9489332e-05 -0.0025886782 0.0019368879 -0.00097391946
0.000337875 0.00041431122 -0.000785546 -5.942202e-05 1.1345689e-05 0.00010785791 -9.13858e-05 0.00019940901
6.978272e-05 -7.229974e-05 -1.8607774e-05 2.3973678e-05 0.0011786738 0.00022631684 1.5836242e-05 0.0032244674
-0.0030206079 -1.6623762e-05 0.0006939184 0.00015779356 -2.7781069e-05 0.00018984209 -0.00017628743 3.15031e-05
0.00021382622 6.115609e-05 9.143e-05 0.0003592914 0.00011600722 -8.621343e-05 0.0004882503 0.0002865851
0.00018447918 0.0007601618 4.8961494e-05 0.00013661441 0.00022121047 -9.552746e-06 -8.329756e-07 0.0015695695
0.0005484749 -2.511864e-06 0.001215657 0.00049905403 -0.00015289443 -0.00015488094 -0.00067928503 0.00016082168
0.0005644025 0.0006119663 0.00032014385 0.0006423666 0.00020847307 0.0001693853 0.00031172676 0.00023198698
7.389903e-05 0.00020321853 -2.6265427e-05 -3.717451e-05 0.00018263861 0.0003483717 1.7481689e-05 0.00045704856
0.00022436063 -2.029507e-05 -0.007300426 -0.0052843606 -0.004679941 -0.004240701 0.004670087 -0.00770297
-0.00031089206 -0.0022607339 -0.004532674 0.0034733631 0.00092547445 -0.0029911408 -0.0010457698 -0.0033310773
0.008003335 -0.0024799514 -0.0010374842 -0.0039710184 -0.0010044281 0.0046917736 -3.677631e-05 0.006625817
-0.00072107714 0.0020462472 -0.000631732 0.0014876339 -0.0021697425 -0.00040880145 0.000117682604 -9.8991295e-05
0.00027774964 -0.0002676154 0.00015381508 0.00021743707 -3.0575175e-05 -9.576869e-05 0.00023214448 0.00029283
0.0019104002 0.0016993755 0.00067382865 0.0015627512 0.0017641395 1.3127215e-05 -0.00018678064 -0.0055840183
0.006439619 -0.010027261 -0.0070740804 -0.011483617 0.0044060405 -0.0023421906 0.010443829 0.0038201327
0.0014586436 -0.0015261605 -0.00032008285 0.0028728293 -0.0010688324 0.00064730336 -0.0002856354 0.0002504142
0.00044659822 -0.00015446392 -1.05036e-05 5.9051617e-05 -5.073986e-05 -0.0003380147 -8.489572e-06 -5.764325e-05
5.7648373e-05 3.398953e-05 -0.0001447506 -7.194515e-05 8.11319e-06 -0.00018345029 -0.00014350553 -7.6515906e-05
-0.00013714358 -0.00012078808 -6.418806e-05 -0.000455325 -0.00048965734 -7.341234e-05 -0.00011248267 0.00014804267
0.00018773375 -2.793347e-05 -3.853874e-05 5.455423e-05 -0.0034135445 0.0018231914 -0.00053326425 0.000974079
0.0002947164 -0.00010263673 -0.00017368852 0.00017196067 0.0007152694 0.00021791972 0.0014984007 0.002650894
0.0003523498 -0.0008480296 0.00017008986 0.001348289 0.00047816554 -0.00061716425 0.0023885516 -0.002723392
-0.007971456 0.001159843 0.00819376 0.0040664347 0.008959571 -0.0035513577 0.0038916587 0.0020799518
-0.00034845038 -0.00032499235 -0.00018664365 0.00035514912 7.88538e-05 0.00042780876 0.00013789399 -0.00021225208
-0.002404179 -0.0077125723 -0.0008570151 0.0108485725 0.007884867 0.00026016115 0.0003997841 4.8494046e-05
0.0033332622 -8.320943e-05 -2.9957397e-05 5.751462e-05 0.0002526815 -0.00011508549 2.1502949e-05 -9.156584e-05
-0.00050481147 2.671598e-05 -0.0010132228 -0.0040177642 0.0013720943 0.006979302 -0.0032910386 0.0008303349
0.0093100825 -0.00321877 -0.004218035 -0.0001721168 8.554581e-05 1.2632706e-06 -0.00011491317 -5.416831e-05
4.383787e-05 -0.00026046296 -4.6415586e-05 0.000102695005 -0.009976019 0.0015294208 -0.003671016 0.0014620092

conv4.bias f4 [128]
00000000: e499 cf31 78c4 a92f ab04 1db2 f371 78b2
00000010: 91ef acb0 4f32 59b2 7ae7 9431 45aa 8230
00000020: f2e7 892c 5237 8532 0800 81b1 ba2a 6931
00000030: 8dfe feb1 44fb 50b1 cd85 abad 0c7c 28b2
00000040: fbfa bc32 2d99 f5ae a21c 2732 dd3c 9533
00000050: 8c16 47b3 2319 b032 4698 5ab2 e596 4c32
00000060: d400 3a32 3f50 01b2 a3a9 0932 bde2 0531
00000070: e5ac 70b2 6daa bc32 5a0b 0232 64fd eeaf
00000080: 65bc cbb0 09e5 9b32 8b80 5db2 2883 acb1
00000090: 99f7 a7b1 15c9 9631 a8e1 2fb0 6165 b8b1
000000a0: 6155 47b1 a6dd d730 c9fe 8332 2e66 77b1
000000b0: f665 6632 7afc 8d32 4fd8 2231 64ea a4b1
000000c0: 363c d9b1 e29d 8c2f dda7 c4af d83c 3fb1
000000d0: 8efe 4d2f 378f 5cae 58d4 1ab3 847b 97b2
000000e0: b0b1 69b2 e000 4632 c559 eb2f 06c4 49b2
000000f0: 3a5a 1133 ae00 8c32 bc60 df32 2794 dfb0
00000100: eef7 6cb1 6e30 c3ae 760c fcb0 80af 88b0
00000110: ef4f b5af 5655 3032 566f 84b2 d8e7 8230
00000120: dbc3 092f be7c 19b1 63d5 7132 88aa dbb2
00000130: afa5 0830 55b1 a6b1 ec41 73b0 13d5 0232
00000140: b08b 1e32 7366 77b1 e15d 84b1 e69e 1732
00000150: 96fd 9632 e635 46b2 530e f0b1 5b8d 9131
00000160: d3e7 af30 7cbf f9b1 df49 9eb0 9ed0 21b2
00000170: cf3a 4433 1704 45b1 c0f2 2531 3493 0732
00000180: 5552 7332 3d08 f9af ea94 d532 6a9d 6d30
00000190: 20f8 fd32 0f3f 77af ada3 47b0 e373 7db1
000001a0: 05b3 71b2 c66f 1fb2 1f58 f831 7c00 9c2d
000001b0: ecdd 80b1 f3da 6030 e074 3432 6fa3 2030
000001c0: 2c40 0831 cfaf 6cb2 92a5 47b2 b131 2cb0
000001d0: 51bc c0b0 88c1 b930 613a 432f 4cd1 f9ae
000001e0: ad14 de31 8676 0b30 4557 eb2f 4d43 04b1
000001f0: c9e3 a631 d16c c4b2 fa74 5a31 c7fc 4031
6.0419882e-09 3.088052e-10 -9.139664e-09 -1.4461409e-08 -1.2582736e-09 -1.2642501e-08 4.3336827e-09 9.507138e-10
3.9195253e-12 1.5508395e-08 -3.7543977e-09 3.393025e-09 -7.421312e-09 -3.0410812e-09 -1.9499869e-11 -9.807092e-09
2.2000213e-08 -1.11685196e-10 9.72719e-09 6.949424e-08 -4.6353804e-08 2.0500527e-08 -1.2723893e-08 1.1908672e-08
1.0826813e-08 -7.527034e-09 8.0130205e-09 1.9482933e-09 -1.400915e-08 2.1963581e-08 7.569577e-09 -4.3471993e-10
-1.4823739e-09 1.8148528e-08 -1.289312e-08 -5.0207696e-09 -4.8884883e-09 4.388435e-09 -6.3985306e-10 -5.3666303e-09
-2.9006844e-09 1.5706305e-09 1.536627e-08 -3.6001313e-09 1.3410945e-08 1.6529373e-08 2.369706e-09 -4.7996753e-09
-6.3223764e-09 2.5578034e-10 -3.5771466e-10 -2.7828744e-09 1.8735077e-10 -5.014941e-11 -3.6049045e-08 -1.7634882e-08
-1.36027865e-08 1.1525316e-08 4.2810036e-10 -1.174431e-08 3.3842504e-08 1.6298454e-08 2.6004606e-08 -1.6267493e-09
-3.4483452e-09 -8.876176e-11 -1.8338955e-09 -9.945182e-10 -3.2980504e-10 1.02639515e-08 -1.5417452e-08 9.524639e-10
1.2529659e-10 -2.2335338e-09 1.4076565e-08 -2.5572504e-08 4.971196e-10 -4.851396e-09 -8.8496566e-10 7.615443e-09
9.228572e-09 -3.6001466e-09 -3.8523784e-09 8.825486e-09 1.7577616e-08 -1.1537372e-08 -6.986548e-09 4.2361257e-09
1.2798814e-09 -7.268623e-09 -1.1517008e-09 -9.4188675e-09 4.5688292e-08 -2.8669598e-09 2.4148648e-09 7.891504e-09
1.4163182e-08 -4.529869e-10 2.4864182e-08 8.6443797e-10 2.956591e-08 -2.2486922e-10 -7.2628376e-10 -3.688222e-09
-1.4068751e-08 -9.280432e-09 7.227768e-09 1.7735362e-11 -3.75052e-09 8.180187e-10 1.0503953e-08 5.8439914e-10
1.9827082e-09 -1.3776982e-08 -1.1620971e-08 -6.264385e-10 -1.4023361e-09 1.3515526e-09 1.7755887e-10 -1.13603876e-10
6.463401e-09 5.073634e-10 4.280826e-10 -1.9246784e-09 4.857132e-09 -2.2866887e-08 3.1789669e-09 2.8083365e-09

bn4.weight f4 [128]
00000000: 6fbd d83e c009 d23e 5179 d53e d60e d83e
00000010: d6ed e43e ae07 cc3e 3f72 d13e 505f d23e
00000020: a394 e13e 0872 fc3e d617 f73e a93d d03e
00000030: 1ed1 cf3e 73dd d23e 8266 d33e b2dd 033f
00000040: e9a4 ce3e 1839 d33e 7596 d63e a038 d23e
00000050: 9981 da3e 979e ce3e 1ac4 dc3e eadf d33e
00000060: fae0 f23e 3999 e93e e349 ce3e 78a2 d03e
00000070: 3020 e13e 9309 d33e b2ed da3e 852d e43e
00000080: 64c2 d93e b878 d43e efb7 e33e 01d6 e83e
00000090: be92 023f ad3b d23e 5349 d73e 5009 ce3e
000000a0: 3a26 cc3e a4c1 e23e a470 d83e 0d3f ce3e
000000b0: 5a03 cd3e f0a5 063f 0c51 d33e 29c4 e43e
000000c0: 6465 d23e a1a8 d13e ebcd cc3e b4f7 d93e
000000d0: 0928 d23e 2aba cc3e 8e93 d63e a96e cf3e
000000e0: 9f87 de3e 0d60 e33e 7d9b d73e 9d3f e53e
000000f0: fe55 e03e 0108 e83e 40d1 d43e bf2e ec3e
00000100: 96c8 f23e 5408 f03e c735 da3e 3430 d83e
00000110: acd5 d53e 6aba e73e e6a3 d93e b39d d73e
00000120: 0014 cd3e 9acd e13e d137 d23e 8868 0b3f
00000130: 0a41 f03e aba9 db3e 8166 db3e 04e9 e83e
00000140: 6f8f cf3e 7c32 db3e 25e7 d83e d861 d33e
00000150: 1b13 d73e 101f da3e 9f25 e83e b3a6 e13e
00000160: d016 e13e ad83 d83e 3071 ef3e 9399 d53e
00000170: 2262 f43e bca7 e13e 844a f33e f4ec d03e
00000180: 6f9d f33e 8ef1 cb3e f91b de3e bf06 dc3e
00000190: 3591 f23e fbb5 d03e 1a3f de3e 154d e13e
000001a0: dcd5 dc3e 1f64 eb3e 5aae d83e 515c ca3e
000001b0: 6890 cd3e b30e cc3e ab15 ce3e 5589 ce3e
000001c0: 5284 d63e 8443 ce3e 199d d33e 5352 e43e
000001d0: 65db cc3e 8082 d03e 21b8 e23e fd66 cb3e
000001e0: 908a d93e a13d ca3e 3bf5 cb3e d48b cd3e
000001f0: 0873 d23e 78db fc3e 9664 d63e 19b4 d53e
0.42332026 0.41023064 0.4169412 0.4219882 0.44712704 0.3984961 0.40907475 0.41088343
0.44058713 0.4930575 0.48260373 0.40672043 0.4058923 0.41184577 0.41289145 0.51510155
0.4036019 0.41254497 0.41911665 0.41058826 0.42677 0.4035537 0.43118364 0.4138177
0.47437268 0.45624712 0.40290746 0.40748954 0.4396987 0.41218242 0.42759472 0.4456598
0.4253112 0.4149835 0.44476268 0.45475772 0.5100516 0.41061154 0.4204813 0.4024148
0.39872915 0.4428836 0.42273438 0.4028248 0.4004162 0.5259695 0.4127277 0.44680908
0.4109298 0.40948966 0.40000853 0.42571795 0.4104617 0.39985782 0.4190945 0.40514114
0.43462846 0.44409218 0.42110816 0.44775096 0.43815607 0.45318606 0.41565895 0.46129414
0.4741866 0.46881354 0.42619154 0.42224276 0.4176458 0.4525941 0.42507857 0.42112502
0.4005432 0.44102174 0.4105821 0.5445638 0.4692462 0.42902884 0.42851642 0.45490277
0.4053912 0.42811954 0.4236385 0.41285586 0.42006764 0.42601824 0.45341203 0.44072494
0.43962717 0.4228796 0.46766043 0.4171873 0.4773112 0.44073284 0.47517788 0.4080578
0.4758105 0.3983273 0.43380716 0.42973897 0.4737641 0.4076384 0.43407518 0.4400412
0.43131912 0.45974824 0.4232052 0.39523557 0.40149236 0.39854965 0.40250906 0.4033915
0.41897827 0.40285885 0.41330793 0.44594058 0.40011135 0.40724564 0.44281104 0.3972701
0.42488527 0.39500144 0.39835533 0.40145743 0.41103387 0.4938619 0.41873616 0.41738966
