best_precision_discriminator.pth (torch, 421831 bytes, 30 tensors)

conv1.weight f4 [16, 3, 4, 4]
000000 78 d2 83 3b d9 17 f6 bb d5 f8 02 ba b7 c3 f0 3b
       0.0040228926 -0.007510167 -0.00049961853 0.00734755
000010 68 72 1d bc 42 51 0e bd f5 00 5e 3a db 25 0f 3c
       -0.009609796 -0.034745462 0.00084687705 0.008737053
000020 ef c3 2f 3c 1a 23 2d bc f0 81 22 bc ea 7b e9 3c
       0.010727867 -0.010567451 -0.009918675 0.02850147
000030 07 30 46 bc 9a 27 6e 3c e3 3c 1d bb f6 00 48 bd
       -0.012096412 0.014535809 -0.002399259 -0.04882904
000040 4b 61 bb bb d8 27 b3 bc ff 3b e3 3b 5f a8 4c 3a
       -0.0057183853 -0.021869585 0.0069346423 0.00078070717
000050 2b 27 aa 3c 02 6c 56 3c b2 50 0a bd 9a 59 03 3d
       0.02077063 0.0130872745 -0.033768363 0.032067873
000060 35 15 31 3b cf 68 67 3c ca e5 23 bc 40 17 98 3c
       0.0027020697 0.014124109 -0.010003516 0.018565774
000070 85 e0 f3 3b 9f 9a 1c b9 94 48 be 3c b1 0b da bc
       0.0074425363 -0.0001493492 0.023227967 -0.026616903
000080 2c 88 77 bc eb 3a 35 3c fc 4d 1f bc 0d 96 ef 3b
       -0.0151081495 0.01106141 -0.009723183 0.0073115886
000090 74 9d ff bb e8 74 d1 3c a8 a6 52 3d 72 05 00 bd
       -0.0078007523 0.02556844 0.051428467 -0.031255193
0000a0 27 2e b9 3c 3c 76 ab bb 4f d7 af 3c 20 9b c0 bc
       0.022605015 -0.0052326005 0.021464972 -0.02351147
0000b0 77 ea cf 3c 6c b4 9b 3a c2 0c 99 3c 14 45 b9 3c
       0.025380356 0.0011879331 0.018682841 0.022615947
0000c0 6f fa c3 ba ea b0 f0 ba f4 39 19 3c af 04 56 3a
       -0.0014951954 -0.0018363271 0.009352196 0.000816415
0000d0 e4 63 87 3c e9 f8 48 3c 5d b6 e9 b8 95 dd 3a ba
       0.016527124 0.012266376 -0.000111442736 -0.0007128355
0000e0 80 70 f4 3c 6b 85 c3 3c dc 41 56 ba 18 a3 ae ba
       0.0298388 0.02386733 -0.0008173266 -0.0013323752
0000f0 c3 2f 2d bc fe 67 b4 3c 7c ef c4 ba 8b 2c b0 bb
       -0.010570469 0.022022244 -0.0015024985 -0.0053764037
000100 de 69 0b 3a 33 a4 91 3a d0 74 61 bc 24 c4 3f bc
       0.00053182046 0.0011111557 -0.01376076 -0.011704478
000110 53 61 2d bd d7 e7 02 bc 42 a3 53 39 73 3d 56 bb
       -0.042329144 -0.007989845 0.00020183346 -0.0032690435
000120 71 54 1d bc 8f 89 90 3a e9 b7 75 bc 69 5d 35 bb
       -0.009602652 0.0011027324 -0.014997461 -0.0027674085
000130 c4 0b 1c bc e1 25 fe 3c 3e df b6 ba f0 28 c9 ba
       -0.0095242895 0.031023921 -0.0013952029 -0.0015347283
000140 c4 88 0a bc 4d 0f 26 bc cb bf 1a 3c 83 f4 bb 3a
       -0.008455459 -0.010135484 0.009445141 0.0014339838
000150 88 b2 c1 bc 51 08 86 bc 7f b6 b1 ba dd 18 3a 3b
       -0.0236447 -0.016361387 -0.0013558416 0.0028396167
000160 10 ba 03 3d 5a 14 8e 3c d6 49 da bb 47 1e 01 bb
       0.032159865 0.017343689 -0.006661634 -0.0019701885
000170 bc 82 f3 bc 2f 3a 1a bc da be 53 bb a9 28 c8 ba
       -0.029725425 -0.009413286 -0.0032309801 -0.0015270907
000180 68 81 84 3c e9 cb 8c bb 5a 2e 4c 3b 2c 06 02 bd
       0.016174987 -0.004296769 0.0031155557 -0.031744167
000190 7e 56 37 3c 96 a6 c4 3c 0f a0 16 3b 2d 48 8a 3d
       0.011190055 0.024005216 0.0022983586 0.06752048
0001a0 8b 65 e9 3b 38 15 a8 ba 6c c7 42 3b 57 4d 37 bc
       0.0071227006 -0.0012823706 0.0029720915 -0.011187873
0001b0 6b 6c fa ba c0 3c ad 3a 07 14 3e 3b 14 fe 64 3d
       -0.0019105797 0.0013216957 0.0029003636 0.05590637
0001c0 81 0e bc bc 68 4e 81 3a c7 35 36 3c 43 aa 39 3b
       -0.022956135 0.0009865286 0.01112122 0.0028330244
0001d0 d6 db 6b ba 71 2f c9 3c 22 16 0f 3b bc 59 e8 bc
       -0.00089972967 0.024558755 0.002183326 -0.028363101
0001e0 37 db 03 3d 91 6b 14 3b f1 6a 96 3b 45 02 57 bc
       0.03219148 0.0022647122 0.004590385 -0.0131231
0001f0 99 18 00 3c 05 b1 37 3b bd 31 6e 3b bb 88 14 3b
       0.007818365 0.0028029096 0.0036345564 0.0022664506
000200 e7 7b 17 bd 11 08 79 ba 73 ce 38 3b 34 4f e7 bc
       -0.036983397 -0.0009499798 0.0028199225 -0.02823601
000210 73 4f 63 38 d3 88 0f bd 99 a7 45 3b 63 2b 24 bc
       5.419501e-05 -0.035042595 0.003015971 -0.01002011
000220 bc 61 69 bc 05 f9 79 3c 2b 48 1d 3b 21 75 02 bc
       -0.014244493 0.015257125 0.0023999314 -0.007962496
000230 8e 1c 39 3b 9b 62 da 3c af f3 ee 3b 62 21 5b bd
       0.002824578 0.026658347 0.007292233 -0.053498633
000240 fc 5b 5f bd 36 f3 87 bc 9a 02 fa bc b1 29 19 3d
       -0.054531083 -0.016595464 -0.030518819 0.037393276
000250 f3 b1 d8 bd 7d fe 99 3d d5 69 10 bd 75 7f 52 bd
       -0.10580816 0.07519243 -0.03525718 -0.051391084
000260 96 85 15 3d 9e 36 6e 3d 9a e4 24 bd d0 11 22 3d
       0.03650435 0.058157556 -0.040257074 0.03956777
000270 7e 7f 46 3b a4 7a 28 3d 8e c1 19 3d 1a e0 3f 3d
       0.0030288394 0.041132584 0.037538104 0.04684458
000280 f4 75 02 bd 92 9d b8 bd f4 44 a0 3d 6c b5 06 3d
       -0.03185077 -0.09014429 0.07825652 0.03288786
000290 5e 7e 9c bc 86 4c 02 3d e2 51 94 bd d1 78 27 3d
       -0.019103225 0.03181126 -0.072421804 0.040886704
0002a0 6f 99 60 3d 7a ae 7a bd 99 10 58 3d bb 6c 18 3b
       0.054833826 -0.06120155 0.052750204 0.0023258168
0002b0 be db 38 3d df 66 02 3d c8 05 7a bd 6c d4 7e bc
       0.045131437 0.031836387 -0.06104067 -0.015553575
0002c0 5f 75 58 bd a8 0c 72 3d 50 f5 16 bb 3e 41 5c 3d
       -0.05284631 0.0590941 -0.0023034401 0.053773157
0002d0 e1 f6 93 bd 93 e3 8a 3d 17 c2 77 bc 37 f0 5c 3d
       -0.07224823 0.067816876 -0.015121958 0.053940024
0002e0 37 30 96 3c 41 0f 85 bd 89 f5 cb 3c 8e a8 a6 3b
       0.018333538 -0.0649705 0.024897354 0.0050860113
0002f0 56 3a 9e bd ff 8a 30 bd cd 83 55 3d 3b b6 71 3c
       -0.077259704 -0.043101307 0.05212765 0.01475292
000300 34 51 6d 3c d3 71 23 bd 01 27 88 bc 1a c3 b3 bc
       0.014484692 -0.039903473 -0.016620161 -0.021943618
000310 52 7b 41 3d 65 bd 58 ba 2b 9f 47 ba 2b 42 29 3b
       0.047236748 -0.0008267968 -0.00076149654 0.0025826793
000320 b9 10 4a 3d e2 7a 10 bd 64 f7 97 bd 7e 90 2a bc
       0.049332354 -0.03527344 -0.07420233 -0.010410426
000330 11 1c 3d bd bd 15 46 3d a0 b3 a5 3c ae 82 92 3b
       -0.046169344 0.048360575 0.020227253 0.0044711446
000340 54 28 39 bc db 11 01 3d 4d 04 23 3c 51 20 83 bc
       -0.011301119 0.03151117 0.009949756 -0.01600662
000350 1f 85 39 bd 1d 4c 02 bd 2c 57 39 3d 58 88 42 bd
       -0.04529297 -0.03181087 0.04524915 -0.04749331
000360 fd 69 3a 3d 28 ae 0e 3c fe 69 9f 3c 9e 82 17 bd
       0.045511235 0.008708514 0.01945972 -0.0369898
000370 f5 33 a7 bc 12 52 52 3d 04 ae c8 bc 6f 6f 24 bd
       -0.020410517 0.0513478 -0.02449704 -0.040145334
000380 26 69 e4 3c 3f 3b 4f 3d c0 23 dd 3c fc 7a 35 b9
       0.02788217 0.05059361 0.026994586 -0.0001730732
000390 40 91 c1 3c 30 65 7f bc 44 17 94 bc 1c 7d 4c 3c
       0.02362883 -0.01558809 -0.0180775 0.012481
0003a0 dd f0 8b bd 12 30 95 3d ce 30 78 3b 90 9e 87 bc
       -0.068330504 0.07284559 0.0037870887 -0.0165551
0003b0 c7 59 29 3d e4 a8 2d bd c8 5b c9 39 46 3e 0e 3d
       0.041345384 -0.042397395 0.0003840609 0.034727357
0003c0 76 c0 bf bc 9a db 63 3c 2a 1e 34 3d 20 40 d9 ba
       -0.023407202 0.013907338 0.04397408 -0.0016574897
0003d0 03 7e 24 3d b7 ed 9e 3c 36 45 5b bd 36 72 10 3d
       0.040159237 0.01940046 -0.0535328 0.03526517
0003e0 f9 aa 47 3d 87 1d 75 bd 90 1c 10 bd 79 8f 81 3c
       0.048747037 -0.059842613 -0.03518349 0.015815483
0003f0 f4 5f 5b bc 62 0b 10 bd b9 47 7d bb 3e a7 64 bc
       -0.013389576 -0.035167105 -0.0038647486 -0.013955889

conv1.bias f4 [16]
000000 40 81 91 b0 2c c8 7c 2f f1 aa 80 b1 41 2e ed ae
       -1.0586874e-09 2.2990382e-10 -3.744724e-09 -1.07857286e-10
000010 ea 6d 02 30 07 53 ef ae f1 a9 22 b0 55 3a 87 aa
       4.744992e-10 -1.088321e-10 -5.917676e-10 -2.4021293e-13
000020 8a a4 56 b0 bb 4e 65 b0 35 0a 5c 31 48 f4 6b af
       -7.808657e-10 -8.34216e-10 3.2020016e-09 -2.1459912e-10
000030 0d d8 e7 af e9 fd 07 af 4b f6 b7 af e3 ea a4 af
       -4.2172169e-10 -1.2368385e-10 -3.3462508e-10 -2.9998323e-10

bn1.weight f4 [16]
000000 d0 81 dd 3e d4 56 cc 3e 76 ec 16 3f b9 d9 1c 3f
       0.43263102 0.39909995 0.5895456 0.6126972
000010 ef c7 07 3f 32 3a f2 3e 10 9a de 3e f7 60 d8 3e
       0.5303945 0.47310024 0.43476915 0.42261478
000020 68 6c f3 3e c2 9a 0d 3f 5a 5c f3 3e 77 18 18 3f
       0.47543645 0.55314267 0.47531396 0.5941233
000030 f2 30 da 3e 06 ca cb 3e c3 d1 17 3f 7b 68 cd 3e
       0.42615467 0.3980257 0.59304446 0.40118775

bn1.bias f4 [16]
000000 3b 4f 6c 39 4c e1 01 b8 7a b8 f5 39 b8 be 6b 38
       0.0002253623 -3.096582e-05 0.00046867487 5.6205987e-05
000010 77 6e dd 39 08 af 7e 3a 3d 0a 03 39 f9 ff 9b 39
       0.00042234708 0.0009715413 0.00012496948 0.00029754618
000020 c1 2a 42 39 56 78 8e 39 dd c2 b7 39 23 0b 0d 3b
       0.00018517209 0.00027174008 0.00035049664 0.002152153
000030 08 0b 81 39 20 ea bd 39 3c 44 ff 39 92 37 42 39
       0.00024613016 0.00036223326 0.0004868823 0.00018521983

bn1.running_mean f4 [16]
000000 9f f9 db 3c 55 95 39 bc fc 30 74 3c b3 49 bc 3c
       0.026852427 -0.011327107 0.014904257 0.022984361
000010 54 7b 5f 3b 20 42 d4 3c a6 4e a9 bc 66 b5 e7 3c
       0.003410061 0.025910437 -0.020667385 0.02828474
000020 5d c2 20 3d c7 1b 3a bc db a4 70 bb 6a cf b8 3c
       0.03924786 -0.011359162 -0.0036719355 0.02255984
000030 28 a0 30 bd a4 f4 be 3c bd ea 4c 3d 09 34 31 bb
       -0.043121487 0.023310013 0.05002855 -0.0027039072

bn1.running_var f4 [16]
000000 d2 ff 6d 3a 45 11 89 39 7b 76 3e 3a 16 7c fc 3b
       0.0009078953 0.00026143543 0.000726558 0.007705222
000010 43 08 d8 3a 4f 4c 96 3b 36 39 af 39 e4 c9 07 3b
       0.0016481954 0.0045867334 0.00033421227 0.0020719701
000020 35 9a 05 3b 58 19 18 3b a7 8e ab 39 7a f6 1e 3b
       0.0020386104 0.0023208465 0.00032721946 0.0024255798
000030 84 8a 04 3b 17 f2 2b 3b 7c ce e8 3a 3e 1c d3 3a
       0.0020224163 0.0026236826 0.0017761732 0.0016106439

conv2.weight f4 [32, 16, 4, 4]
000000 99 06 04 ba 1c 7f 9d bc 33 06 52 bb da c8 b5 3b
       -0.00050363835 -0.01922565 -0.0032047152 0.005547625
000010 ca 72 26 bb ea 4f 60 bc 79 7e 0f 3b 52 e4 9c bb
       -0.002539801 -0.013690928 0.0021895452 -0.00478796
000020 86 b8 5e 3c 90 81 7f bc e6 d1 b2 3b a2 89 55 3b
       0.0135937985 -0.015594855 0.0054571507 0.0032583256
000030 9b 09 25 bc a5 ab 90 bc 1d 17 1f 3c a1 12 4b 3a
       -0.010073091 -0.017659971 0.0097101005 0.00077466114
000040 6f 7c c0 3b 26 82 32 bc 27 16 cd 39 44 10 a5 3b
       0.0058742086 -0.010895288 0.00039117152 0.0050373394
000050 66 84 ba bb 0d 32 ec ba c8 6b f3 3b 8f d4 3c 3b
       -0.0056920527 -0.0018020287 0.00742862 0.0028813218
000060 69 75 c0 ba 21 6e 21 3c 0a 55 0a bb a1 72 e6 bb
       -0.0014683428 0.009852917 -0.0021107816 -0.007032708
000070 8c 5c b7 bb 9e ec 86 bb 00 b2 16 bb 99 27 0f 3c
       -0.0055957492 -0.0041175624 -0.002299428 0.008737468
000080 3f 6b 40 bc 89 d6 8f bb dc 15 4a bc a3 ba 2a 3a
       -0.011744319 -0.0043895883 -0.012334313 0.00065127964
000090 59 2a f3 bb 4a 08 30 ba ac 21 be 3a 55 fc a0 3a
       -0.0074208197 -0.00067151024 0.0014505885 0.0012282232
0000a0 13 15 9a bc 15 a9 7a 3c c7 fb 0c bb a7 c9 5e bb
       -0.018808877 0.015299101 -0.0021512376 -0.0033994706
0000b0 d1 d5 e5 ba c0 9d a2 3c f3 e4 f1 3b 1f 95 9a bc
       -0.0017535036 0.019850612 0.007382029 -0.018869935
0000c0 9e 06 41 39 5e c5 b9 bb b5 2c 94 ba 02 4a a3 ba
       0.0001840838 -0.00566928 -0.0011304828 -0.0012457969
0000d0 b5 b7 3c bb 37 e5 ef 3b 23 31 2b 3a 56 8d eb bb
       -0.0028796021 0.0073210257 0.0006530454 -0.0071884794
0000e0 25 59 fd 3b 26 ac 45 3c c0 d4 48 3c 98 9c 03 bc
       0.007731574 0.012064969 0.012257755 -0.00803294
0000f0 af 21 83 3c 64 88 45 bb a5 0c 04 3c 99 4a d4 3a
       0.016007273 -0.003014111 0.008059655 0.0016196548
000100 f9 80 51 bb 18 d7 99 ba cf 7a 82 bb 14 19 05 3b
       -0.0031967743 -0.0011737077 -0.003981925 0.0020309137
000110 f8 5a fa 3a f9 7d 1a ba 76 4f 8f b9 1c 6a b7 3b
       0.0019100597 -0.0005893405 -0.00027334288 0.005597366
000120 68 30 2c 38 7d ef 26 39 e5 88 84 bc 97 db 27 bc
       4.1053077e-05 0.0001592021 -0.016178558 -0.010245225
000130 ce c7 c8 ba 56 89 1f bb 7a 4b 2a bc a7 b0 73 3c
       -0.0015318335 -0.0024343333 -0.010393972 0.01487366
000140 4c dc 07 bc 93 41 cc bb 4a 90 18 bc 38 4d cb 3a
       -0.008292269 -0.006233403 -0.009311745 0.0015510684
000150 ab c3 8f 3b b1 b8 ef 3b 7f 2d 19 3b 3d e5 39 ba
       0.004387339 0.007315718 0.0023373065 -0.0007091349
000160 e7 b4 6d 39 97 e9 5e 3c 9b cf 9a 3c 83 ef ac 3b
       0.00022669473 0.013605497 0.018897822 0.0052775755
000170 f7 9c 15 3b 8a 78 48 3a 48 c3 3c 3c e5 d0 0e 3a
       0.0022829154 0.0007647356 0.011521168 0.0005447998
000180 76 b6 32 3a 37 b1 e5 3b 6c 67 b0 bb 3c ca 16 3b
       0.000681735 0.007009651 -0.0053834226 0.0023008725
000190 3f 01 5f 3a 77 5e d3 ba 52 4b 3f bb 07 cb 3f b8
       0.00085069606 -0.0016126175 -0.0029189182 -4.5727033e-05
0001a0 93 e2 a5 ba bb c1 d8 b9 8d 74 1a bb 1b 49 a6 ba
       -0.0012656025 -0.0004134307 -0.0023568005 -0.0012686582
0001b0 26 29 b9 3a ea cb 24 ba df 2b d7 b9 8b 3a 2a 38
       0.0014126643 -0.0006286489 -0.00041040682 4.058568e-05
0001c0 d4 c6 d3 39 28 b0 f0 ba d0 fa 33 39 c9 62 cf b8
       0.00040393195 -0.0018363046 0.00017164205 -9.888929e-05
0001d0 9d d7 78 39 67 ec 8e 39 9e d8 5b 39 19 bc d7 ba
       0.00023731445 0.00027260484 0.00020966164 -0.0016459256
0001e0 83 83 a0 3a 52 44 ab 38 c6 c0 a5 39 69 eb 63 3b
       0.0012246225 8.166641e-05 0.0003161488 0.0034777767
0001f0 4f a3 03 3b 03 e1 85 3b ff 66 43 ba 8d e2 d6 3b
       0.0020086353 0.0040856614 -0.0007454007 0.0065577687
000200 ce 91 b7 39 b5 c4 8d 3b 7f 56 5a bb e4 82 12 bc
       0.00035013113 0.004326428 -0.0033315716 -0.00894234
000210 a2 41 e1 3b 30 51 ff 38 39 31 43 39 c8 a5 39 3a
       0.006874279 0.0001217447 0.00018614986 0.0007081893
000220 04 52 5a 39 64 0b bc ba 0e 4c 3a b9 95 01 e6 3b
       0.00020820653 -0.0014346656 -0.00017766675 0.0070192316
000230 25 fe f0 b9 99 d9 16 3b 88 56 09 b9 63 13 ef 39
       -0.0004596572 0.0023017882 -0.00013097574 0.00045600077
000240 24 22 0e ba 65 07 6a 3a 10 67 ea 3b 90 d0 8b 3c
       -0.00054219575 0.00089274935 0.0071533993 0.017067224
000250 df d9 81 3b b4 79 99 3b 7c 21 58 39 ec 65 8b 3a
       0.00396274 0.0046836976 0.00020611839 0.0010635233
000260 25 12 61 3b f0 07 ca 3a 8b 22 18 bb 61 48 cb 3a
       0.003434309 0.0015413743 -0.0023213949 0.0015509241
000270 5a ed 94 39 59 32 3e bb a0 81 d1 b7 fa da 8e ba
       0.000284056 -0.0029021709 -2.4975103e-05 -0.0010899
000280 be 34 b6 bb c7 60 1d 3b b7 22 83 3c f9 d6 0d bb
       -0.0055604866 0.0024013983 0.016007764 -0.0021643026
000290 7f d3 21 bb ee ff f0 bb 33 24 22 3a 5d 01 9b bb
       -0.0024692712 -0.007354728 0.00061852037 -0.004730387
0002a0 d9 05 d9 3b cd 5c 06 3c 9d a7 95 bb 26 83 57 3a
       0.0066230115 0.008200836 -0.0045671 0.0008221142
0002b0 68 24 4b 3b af dd 55 3c e7 2e 28 3c 68 ac 53 3c
       0.0030997042 0.013053342 0.010265089 0.012919523
0002c0 90 21 e4 3b 9e 61 6c bb da cc 87 bb 2d c1 26 ba
       0.006962009 -0.0036068927 -0.0041442933 -0.0006361183
0002d0 9d 17 f2 bb 5c de d0 bb 02 7f a5 3a 30 d9 94 38
       -0.007388069 -0.0063741636 0.0012626352 7.097644e-05
0002e0 0f 10 1f bc bc 74 a7 ba c4 a4 79 bc 92 58 db 3b
       -0.0097084185 -0.0012775878 -0.015237037 0.006693908
0002f0 2a 63 2d bb f3 c5 04 3c 80 1e 7c 3a 58 af cb 3b
       -0.0026456811 0.008103835 0.0009617582 0.006215971
000300 f5 68 d2 bb f3 94 cf 38 d7 65 6f bb 27 10 f8 3b
       -0.0064212033 9.898273e-05 -0.0036529207 0.007570285
000310 66 7d 99 3c 5c 72 45 b9 2a ae 2d bc f4 af 9d bb
       0.018736552 -0.00018829986 -0.010600606 -0.004812235
000320 3a 72 48 3c 9e c5 01 ba 65 7d f4 3b 7d c1 30 3c
       0.012234265 -0.0004950407 0.0074612373 0.010788319
000330 1f 54 52 bc 88 d6 b6 39 e3 d8 86 bb d0 60 9f 39
       -0.012837439 0.00034873583 -0.0041152104 0.00030398974
000340 0c 4b c6 39 2f 0e 93 39 98 cf ba 3b d8 d7 20 3c
       0.00037821417 0.00028048593 0.0057010166 0.009817086
000350 b2 dd 54 b8 ac b2 14 bc 4b e6 20 3b 34 24 d8 b9
       -5.075121e-05 -0.009075802 0.0024551328 -0.00041225704
000360 0f fb f4 39 b5 f1 80 3a 80 17 8a 3a 75 fc 40 3b
       0.0004672636 0.0009837659 0.0010535568 0.002944735
000370 03 d9 6f 3a 2a 3f ac b9 c2 be 3f 3a 0c 61 19 bb
       0.0009149464 -0.00032853457 0.0007314497 -0.0023403792
000380 e5 07 87 bb d0 4b 10 bc e2 bb 67 3b 61 40 c7 3b
       -0.004120814 -0.008807138 0.003535979 0.0060806726
000390 d0 b8 36 3c 7a 0e 19 3c 2b 14 d5 3b 40 54 18 3a
       0.011152461 0.00934183 0.0065026483 0.0005810894
0003a0 eb 7b a6 bc 81 9d 3a bc c3 fb 40 3c f7 2e 8f 3c
       -0.02032276 -0.011390091 0.011778775 0.01747845
0003b0 dd d5 1d bc 6f 03 4e bb c6 e7 07 3c 72 b1 e6 3b
       -0.0096335085 -0.0031435152 0.008295005 0.007040196
0003c0 29 90 23 39 6e ab dc ba 64 dd 1a 3b 8b 9e d0 3c
       0.00015598595 -0.0016835758 0.0023630494 0.025466224
0003d0 05 da ad 3a 92 a6 b0 39 43 6f 6b bc f5 5a 33 bc
       0.0013263827 0.0003369344 -0.014369789 -0.010946979
0003e0 60 fe 99 b7 4a 9a 9e 3a 1d 3d 0d 3b 82 22 ce 3b
       -1.8357474e-05 0.0012100425 0.002155132 0.0062907347
0003f0 ab 9f 16 3c d3 07 fa 39 05 62 7b 39 4d 11 bf bb
       0.009193341 0.00047689545 0.0002397374 -0.00583092

conv2.bias f4 [32]
000000 af 94 80 2f 50 60 3e af e9 27 58 30 89 c7 18 30
       2.338871e-10 -1.7314616e-10 7.863706e-10 5.5580834e-10
000010 20 a9 34 2f f6 9c 37 2d 84 99 11 2f 19 65 8b 2f
       1.643099e-10 1.0437198e-11 1.3242213e-10 2.5355787e-10
000020 fc a7 8e af f3 33 fa 30 97 96 91 b0 70 61 33 b0
       -2.594901e-10 1.8204659e-09 -1.0592939e-09 -6.525829e-10
000030 18 b9 86 2f 7d a1 e4 af c7 23 ed 2f 76 9f 68 b0
       2.4505975e-10 -4.1587703e-10 4.313547e-10 -8.4627716e-10
000040 b0 dd 81 b1 34 9f fa af 04 b1 8a af d2 90 d5 b0
       -3.779597e-09 -4.5587856e-10 -2.522783e-10 -1.553895e-09
000050 38 7a 84 30 c6 43 64 af ca 15 ac af b0 ba 22 af
       9.639001e-10 -2.0760557e-10 -3.13021e-10 -1.4800139e-10
000060 64 ae a8 ad 98 91 49 b1 ce d4 87 2c 62 ff e9 ae
       -1.9176834e-11 -2.933211e-09 3.860557e-12 -1.06409784e-10
000070 97 4c 4a af 81 b0 36 2d 3e 84 e8 2f d7 56 09 2f
       -1.8399003e-10 1.0384694e-11 4.2294518e-10 1.2490929e-10

bn2.weight f4 [32]
000000 8a bf e3 3e 77 f4 d0 3e 31 5d ca 3e 72 df c5 3e
       0.4448207 0.40811512 0.39524224 0.38647038
000010 e1 25 e3 3e 84 3c d6 3e 57 10 e7 3e cf bf d4 3e
       0.44364837 0.41843045 0.45129654 0.41552588
000020 2d 7d e8 3e 16 24 df 3e 19 03 e0 3e d6 17 e7 3e
       0.45408002 0.4358222 0.43752363 0.45135373
000030 c7 0d ce 3e 23 06 05 3f 94 6d cc 3e 75 2d d1 3e
       0.40244886 0.5196249 0.3992735 0.40854993
000040 c9 f4 04 3f 6e c6 00 3f 15 f3 db 3e 80 52 dd 3e
       0.5193601 0.5030278 0.42958894 0.43227005
000050 9c a5 ca 3e 5f dd 09 3f 05 08 db 3e 02 04 0a 3f
       0.39579475 0.5385341 0.42779556 0.53912365
000060 89 4e e9 3e 15 a5 d2 3e 94 d4 e4 3e 69 15 0d 3f
       0.4556773 0.41141573 0.44693434 0.55110794
000070 4c c7 00 3f ab 53 d7 3e 0a b1 f8 3e 34 e8 f5 3e
       0.503041 0.4205602 0.4857257 0.4802872

bn2.bias f4 [32]
000000 b5 2f 13 3b 58 99 9a 39 1a 5b 9a 38 4d 31 58 39
       0.0022458856 0.0002948742 7.360261e-05 0.00020617731
000010 ca 72 b3 39 e6 4b 12 b9 e7 9d 03 3a 27 b2 b9 3a
       0.00034227065 -0.0001395192 0.00050207827 0.0014167473
000020 91 c5 ca b9 0c ad a6 39 aa 39 f7 39 88 f9 dc 39
       -0.0003867564 0.00031790917 0.00047154474 0.00042147585
000030 b2 2a 1a 3a bb 3d ad 3a ca 7e 2b 3a 39 b4 8f 3a
       0.0005880996 0.001321725 0.00065420254 0.0010963745
000040 72 7f cd ba 70 51 e6 39 6c 37 1e 3a 1a fe 2b 3a
       -0.001567824 0.00043929694 0.000603548 0.00065609964
000050 01 e1 11 3a f8 e4 07 3b e4 40 e6 39 ad 65 47 39
       0.0005564839 0.0020735841 0.00043917366 0.00019015996
000060 f4 bc a3 b9 c0 fd 4a 3a 64 8f 20 3b 0d fe 93 3a
       -0.00031230564 0.00077435 0.002449953 0.0011290923
000070 17 c5 41 b8 30 ac 4f 3a 7b 3e 9d 3a 1c a3 a5 3a
       -4.619834e-05 0.0007922081 0.001199677 0.0012637111

bn2.running_mean f4 [32]
000000 61 f9 2a 3c 35 6b ff 3c 12 07 17 bc fc b8 14 3c
       0.010435433 0.03117905 -0.009217994 0.009077307
000010 52 38 6d 3c 92 4a 6f 3d 38 b9 18 3c cd c8 73 3b
       0.01447876 0.058420725 0.009321503 0.0037198544
000020 8f 35 2a 3b d9 4c e9 3b 8c 86 db bb 79 4e ee 3c
       0.0025971865 0.0071197567 -0.006699389 0.029090153
000030 8e 79 e4 3c 07 39 49 3d d8 90 0c 3d a7 fd 60 3c
       0.027889993 0.04912665 0.03431782 0.01373235
000040 87 f0 0c 3c bd ae 43 3d 3c 5d 13 3d fd f6 12 3b
       0.008602268 0.047774065 0.035977587 0.0022425049
000050 84 e5 cd 3c 8d a1 3f 3b a7 a1 fc bc e2 cb 57 3d
       0.025133856 0.002924058 -0.0308388 0.052684672
000060 60 5d 97 3c 22 16 0d 3c 1c 83 ba 3c bf ed fc 3c
       0.018477142 0.008611234 0.022767596 0.030875085
000070 f1 bc 05 bd 7f a4 7e 3d 5e 00 ef 3c a3 da b9 bc
       -0.03265089 0.062168594 0.02917498 -0.022687262

bn2.running_var f4 [32]
000000 2b ad 4b 3b 98 ea 00 3b 6b e8 81 3a 16 51 21 3a
       0.0031078558 0.0019671079 0.0009911185 0.00061537453
000010 a5 5a ec 3a 69 b2 cf 3b 6f 55 82 3a 7a bd c8 3b
       0.0018032385 0.006338407 0.0009943674 0.006126103
000020 d6 94 14 3c c4 36 18 3a 04 ef 54 3b c0 b0 a7 3b
       0.009068688 0.00058065006 0.0032491097 0.005117506
000030 d4 b0 95 3a 73 13 e1 3b ea 5e d0 3b db 4b fd 3a
       0.0011420497 0.0068687736 0.006358971 0.0019324975
000040 0f c1 3c 3b ec 6c 8b 3b 1e 63 fc 3a 7f a7 02 3b
       0.0028801595 0.004254928 0.0019255613 0.0019936261
000050 b7 23 5d 3b 26 df 3a 3b b6 84 2b 3c b1 78 25 3c
       0.0033743212 0.0028514354 0.0104686525 0.010099576
000060 e9 27 3c 3c 80 40 82 3a ca fd 7b 3a 13 8f 53 3c
       0.011484125 0.0009937435 0.00096127077 0.0129125295
000070 9c 32 4e 3c 57 e7 c3 3b e9 9d 05 3b 05 fc 4b 3c
       0.012585308 0.0059785056 0.0020388311 0.012450223

conv3.weight f4 [64, 32, 3, 3]
000000 8e b2 65 bb ce 33 ff ba c8 91 48 3c 5e bb 59 ba
       -0.0035049054 -0.0019470395 0.012241788 -0.0008305813
000010 a2 eb 87 3a 84 ce c3 bb c1 5d 43 ba 58 4f 6d b9
       0.0010369907 -0.0059755463 -0.000745263 -0.00022631639
000020 44 a1 78 ba bb b4 d3 3a 5c 33 16 bb 2f fd c5 bb
       -0.00094844797 0.0016151884 -0.0022918796 -0.0060421447
000030 a4 c7 da 36 04 10 eb 3a 31 02 31 ba 7f 99 fa 3a
       6.5201475e-06 0.001793385 -0.00067523407 0.0019119232
000040 03 57 05 bb 6e 53 58 ba 6e 54 b5 bb 3c 44 65 39
       -0.0020346052 -0.0008252178 -0.0055337464 0.00021864561
000050 2b 37 0c ba 25 6d 09 3c 70 c5 95 bb b0 0f 24 ba
       -0.0005348797 0.0083878385 -0.0045706555 -0.0006258441
000060 4a 14 f7 3a 2c 5d f2 ba 2a f9 61 b9 0a cf d2 37
       0.0018850651 -0.0018490902 -0.00021550493 2.513036e-05
000070 86 62 14 b8 21 06 5f b9 71 9f 4c 39 fd e7 5c 3a
       -3.5377707e-05 -0.0002126922 0.00019514353 0.0008426903
000080 77 54 f9 b9 a8 fb 83 3a d5 34 a5 b8 73 23 e5 39
       -0.00047555912 0.0010069506 -7.877654e-05 0.00043704695
000090 f6 fd 93 37 d3 3f 9f 3b 74 35 11 3b c0 3d de bb
       1.7642025e-05 0.0048599034 0.0022157105 -0.0067822635
0000a0 06 4f 51 bb 43 28 36 bb 0f bd 2d 3b e8 15 78 ba
       -0.003193797 -0.0027794994 0.0026510393 -0.00094637135
0000b0 45 56 e2 b9 46 d9 cd b8 eb 24 c8 38 09 6b ac 37
       -0.00043170355 -9.815632e-05 9.54362e-05 2.055384e-05
0000c0 32 2b d2 bb 9a 87 30 3b da 35 d3 b9 34 c6 eb 3b
       -0.0064138407 0.0026936294 -0.0004028518 0.0071952585
0000d0 c5 d1 24 b9 7d 63 2c ba 53 e2 67 3a 9f 0f e1 ba
       -0.00015718404 -0.0006576104 0.00088456756 -0.0017170793
0000e0 67 d7 cd b8 45 7f d4 b9 3f 28 84 bb 78 d8 34 3c
       -9.8152836e-05 -0.00040530614 -0.004033118 0.011037938
0000f0 53 c5 98 b9 2a f9 6a 3a a1 7f 1b bc d2 9a 25 3b
       -0.00029138717 0.000896352 -0.009490878 0.0025269282
000100 2a ea a9 bb 25 0b 3a bb 29 53 ba bb d8 f0 de bb
       -0.0051853852 -0.002838799 -0.005686183 -0.006803613
000110 0f 89 2f bc 59 06 50 38 de d9 1e bb 05 68 91 bb
       -0.01071383 4.9596976e-05 -0.0024238746 -0.004437449
000120 b0 2b 90 3a a0 c6 96 bb ae 84 61 bc cc e7 a6 3a
       0.0010999348 -0.0046013147 -0.013764543 0.0012733876
000130 1a 04 62 bb 33 c3 3b bc e7 59 00 3a 28 18 23 bc
       -0.0034487308 -0.011460113 0.0004896209 -0.00995449
000140 06 96 2f bc f0 b7 72 bb 1e 56 50 bc 21 cb ab ba
       -0.010716921 -0.0037035905 -0.012715844 -0.0013106802
000150 6c 7f ad bb 48 63 47 bc 9a 22 c9 ba 84 3c 8e 3a
       -0.005294731 -0.012169667 -0.0015345395 0.0010851775
000160 db 8d a6 3b ff 09 d7 ba ec 51 54 38 73 f7 10 ba
       0.0050828285 -0.0016406177 5.0621034e-05 -0.0005530037
000170 c4 59 85 37 ff 2d 9d bb 8c a8 1f bb 5e 93 c4 b9
       1.5896636e-05 -0.004796743 -0.0024361936 -0.0003749383
000180 85 1a 36 ba 70 2f 31 ba 03 1c 64 ba f0 17 c6 b9
       -0.0006946701 -0.0006759083 -0.0008701684 -0.00037783338
000190 0e 35 06 bb c0 f0 b4 bb bb 8e f5 bb 90 11 d0 3b
       -0.00204784 -0.0055218637 -0.0074938214 0.00634975
0001a0 4d a6 93 3a 00 7c a5 ba a7 eb 8c 3b 1a a8 86 3b
       0.0011264771 -0.0012625456 0.004300553 0.0041093947
0001b0 58 e3 da ba af d6 cb 39 2e 75 7a ba 52 87 b9 bb
       -0.0016699834 0.0003887913 -0.00095542043 -0.0056618834
0001c0 aa e0 73 bb cb bc 80 3a e9 f4 39 39 08 00 2d b9
       -0.0037212768 0.000982189 0.00017734211 -0.00016498577
0001d0 a2 a4 60 bc 1b ad 5c 37 ac c7 09 ba 40 a4 01 ba
       -0.0137111265 1.3153326e-05 -0.00052558887 -0.00049454346
0001e0 17 de 90 b6 f0 e2 7e 39 0c dd 36 ba fd b2 c7 3a
       -4.317389e-06 0.00024307868 -0.00069756876 0.0015235838
0001f0 48 c8 91 38 f7 2f 59 ba 93 19 16 b9 d4 c1 b8 b9
       6.951444e-05 -0.00082850404 -0.00014314642 -0.00035239628
000200 e4 47 ab ba a9 6d 9f 3a 90 0d e5 b9 8a 1e 26 ba
       -0.001306769 0.0012163419 -0.00043688389 -0.0006336948
000210 cb 0f 36 3c a4 03 1f ba 4b f0 4d ba a7 a1 8c bb
       0.011112164 -0.0006065911 -0.0007855936 -0.0042917314
000220 2a 20 81 ba 09 c5 8e ba 37 86 66 bc da b3 ea bb
       -0.0009851505 -0.0010892461 -0.014070085 -0.0071625533
000230 34 bc 75 3a 98 0d b3 3b a0 8a af ba fb 1b b7 3b
       0.0009374053 0.005464267 -0.0013392754 0.0055880523
000240 d8 cc 07 bc db e3 82 3c df e0 38 3c 8e 2a a6 3b
       -0.008288585 0.01597779 0.011284082 0.005070991
000250 08 bd 95 3b 6e 51 54 3c ab d5 cc 3b 2f 08 bf bb
       0.0045696534 0.0129588675 0.006251057 -0.005829833
000260 19 ab 31 bc 5d 5b 7d 3b 61 00 bd bb b9 dd 07 b8
       -0.0108440155 0.0038659193 -0.0057678674 -3.2393003e-05
000270 8e 69 5f 3a 88 03 65 3a 9f 8f ad bb 06 0e 02 bb
       0.0008522504 0.0008736183 -0.005296662 -0.0019844784
000280 42 4f 68 bb f8 24 0a 3c 8e 47 56 39 d9 ba 19 b9
       -0.0035447632 0.008431666 0.00020435287 -0.00014660823
000290 09 cc aa 3a c3 a1 09 b7 74 47 85 3a c0 d2 95 b7
       0.0013030778 -8.203499e-06 0.0010168389 -1.7860322e-05
0002a0 06 de 90 39 74 d1 78 ba 21 d3 39 ba 83 39 29 3b
       0.0002763124 -0.000949166 -0.00070886506 0.0025821633
0002b0 bc 20 1c 3b 7d fe 1b ba 57 4a 77 bc ed 59 0a 3b
       0.0023823222 -0.00059507025 -0.015093408 0.002111073
0002c0 31 98 b4 3a cd 76 46 3b c2 fe 00 3c b8 dc a4 3a
       0.0013778267 0.0030283213 0.007873239 0.0012577986
0002d0 8f 7c 84 bb a1 ab cf bb b5 ef a9 ba 2a 69 f2 ba
       -0.004043169 -0.0063375984 -0.0012965115 -0.0018494476
0002e0 de c6 8b bb a6 93 85 3b 21 1f 60 39 7e a8 a9 ba
       -0.00426565 0.004076439 0.00021373901 -0.0012943891
0002f0 33 53 a2 ba ef 4b 2d ba 37 ba 37 ba 02 84 6f 3b
       -0.0012384414 -0.0006610741 -0.0007008644 0.0036547189
000300 e7 ed ad b9 84 58 ce ba ec 28 fa bb 42 cb a0 b8
       -0.00033174382 -0.0015742932 -0.007634273 -7.667254e-05
000310 42 dd 0d ba e3 d4 b5 b9 34 6c e8 b9 23 8b 00 ba
       -0.0005411693 -0.00034681623 -0.00044331106 -0.00049035455
000320 bc a2 c1 b9 cb 48 4b ba cd be 2c ba d5 67 85 bb
       -0.00036933075 -0.00077546824 -0.0006589711 -0.0040712156
000330 8a e7 2a bb 8e 39 0e 3a 11 d8 3e bb 27 33 81 3b
       -0.002607795 0.00054254464 -0.0029120485 0.0039428654
000340 af ab a2 39 dd 4d 51 3c ad 55 fe 3b 2c 38 3d 3c
       0.00031026962 0.012774912 0.007761678 0.011549037
000350 31 bf 9d 3b f4 77 5a bb c2 1d c8 bb e9 ab e5 b9
       0.0048140516 -0.0033335658 -0.006107063 -0.00043806367
000360 99 83 a3 bb 65 52 17 bb ce b4 97 3b 66 cc 04 bb
       -0.004990053 -0.0023089882 0.004629708 -0.0020263433
000370 72 10 d3 ba e1 ed 12 bc 67 17 36 bb 63 f2 84 ba
       -0.0016102924 -0.008967848 -0.0027784945 -0.0010143038
000380 78 89 33 3c 02 ac 03 39 b2 58 2c ba 31 df 0e 3a
       0.010958068 0.00012557211 -0.0006574496 0.0005450128
000390 89 9f 9d 38 6e 52 84 b9 a1 95 a9 ba 33 c7 cb b9
       7.516059e-05 -0.00025238417 -0.001293827 -0.00038867592
0003a0 9c 40 65 3a 9b 73 96 b9 67 95 69 bb 96 cf 9e 3b
       0.0008745284 -0.00028696362 -0.003564203 0.0048465235
0003b0 7f f1 c5 bb b8 a2 71 bb 29 02 88 3a 56 e7 30 3c
       -0.0060407515 -0.003687067 0.001037662 0.010797342
0003c0 6b 1c 14 bc ae ee 5d bb 59 c9 06 3c c4 f3 39 bb
       -0.0090399785 -0.0033864188 0.008226716 -0.0028374055
0003d0 3c a2 12 3a 4b 00 b6 39 70 17 4f bb dd df 0d bc
       0.0005593633 0.00034713963 -0.0031599663 -0.00865933
0003e0 9d 2b 87 3c c1 3d fd ba 64 54 cb 3a 02 a3 40 bc
       0.016500289 -0.0019320772 0.0015512821 -0.011757614
0003f0 d6 3f c9 3b f1 6a 04 3b 11 93 3a bb 76 73 d1 b9
       0.006141643 0.0020205344 -0.0028469006 -0.00039949612

conv3.bias f4 [64]
000000 b1 7d d2 31 d6 ca 95 30 2c 6f 69 30 1e 77 11 b2
       6.126094e-09 1.0898826e-09 8.492289e-10 -8.467195e-09
000010 d3 ad e6 2f c4 6a cc b0 ac 21 01 b0 95 17 d2 b0
       4.1960266e-10 -1.4873298e-09 -4.6977777e-10 -1.5286213e-09
000020 21 31 cc 2f e8 f2 be 2f 81 8b 69 b0 fe ca cb 2c
       3.7142292e-10 3.4733394e-10 -8.4963153e-10 5.7921437e-12
000030 49 63 37 b2 f6 c4 d4 2e 4f 26 3b af de ff 23 30
       -1.0674577e-08 9.675631e-11 -1.7021161e-10 5.9662664e-10
000040 df 63 3c 30 87 82 c2 b1 95 3e e9 b1 da 55 dc b1
       6.8535927e-10 -5.6609823e-09 -6.7883072e-09 -6.412603e-09
000050 7e 98 91 ae 2a 28 12 ae 27 a0 d8 2e 27 b5 d7 b2
       -6.6209246e-11 -3.323223e-11 9.8509916e-11 -2.5111673e-08
000060 c3 8a 91 b0 3f 53 32 31 bd e6 88 31 bc f3 20 b0
       -1.0589577e-09 2.594973e-09 3.984353e-09 -5.855403e-10
000070 c8 96 54 31 be 90 51 30 53 80 a4 30 c6 f3 40 b1
       3.093577e-09 7.623945e-10 1.1969042e-09 -2.8078246e-09
000080 3b 11 47 2f 07 de 11 31 5b b5 c8 31 d2 c7 6b b0
       1.8105066e-10 2.1226485e-09 5.841384e-09 -8.5776464e-10
000090 d9 10 80 31 b4 c8 2e b1 70 53 06 b1 9e e4 b8 2f
       3.7272057e-09 -2.543442e-09 -1.9546995e-09 3.3631847e-10
0000a0 d3 af 24 b0 64 4c a6 b1 53 ed 98 b0 ca d0 6a 30
       -5.9912714e-10 -4.8399205e-09 -1.1126907e-09 8.542541e-10
0000b0 29 17 b5 2e 26 40 33 31 ee 44 03 30 6b 3a c3 30
       8.235041e-11 2.6084392e-09 4.775548e-10 1.4204721e-09
0000c0 e7 ed f0 af 1f 49 d2 2e a8 fa df b1 8d 81 35 b1
       -4.3824785e-10 9.562683e-11 -6.5186505e-09 -2.6412608e-09
0000d0 6e ca b4 b0 91 bf fa b0 73 fb fc b0 22 4e b1 b0
       -1.3154258e-09 -1.824434e-09 -1.8406879e-09 -1.2900652e-09
0000e0 45 17 0e 31 08 55 97 30 e1 c3 b5 31 87 fb 3e b1
       2.0676947e-09 1.1010863e-09 5.290062e-09 -2.7791616e-09
0000f0 84 00 5a b1 fb ad 12 31 fe 9e a7 af b6 3c 6e b0
       -3.1723468e-09 2.1344693e-09 -3.0490094e-10 -8.667017e-10

bn3.weight f4 [64]
000000 2b c3 d1 3e 4a 62 c6 3e 40 0c cd 3e ce cf cf 3e
       0.40969214 0.38746864 0.40048409 0.4058823
000010 55 54 c8 3e e4 fa cf 3e 65 34 cd 3e 78 b3 ef 3e
       0.3912684 0.40621102 0.40079036 0.4681661
000020 b2 c9 d2 3e ae c5 cf 3e 11 46 f4 3e 1b 7b d6 3e
       0.41169506 0.40580505 0.47709706 0.41890797
000030 ce 06 e2 3e 6c c7 cc 3e 4b b6 d9 3e e0 cd d0 3e
       0.44145817 0.39995897 0.4252189 0.4078207
000040 a2 be e8 3e 38 a7 d1 3e 6f c3 c4 3e a3 40 c6 3e
       0.4545794 0.4094789 0.38430354 0.3872119
000050 4a 1d c1 3e 67 ab c5 3e 86 3e bf 3e 22 8a ca 3e
       0.37717658 0.38607332 0.3735239 0.39558512
000060 21 42 cb 3e b2 06 c8 3e 74 c2 03 3f f4 2f c9 3e
       0.3969889 0.39067608 0.51468587 0.39294398
000070 58 35 e0 3e ca 8b c6 3e 02 87 d8 3e 99 7a d5 3e
       0.43790698 0.38778526 0.42290503 0.41695097
000080 4a d9 c9 3e 29 4e cc 3e 5e cb c6 3e 2e 25 d3 3e
       0.3942359 0.3990338 0.38827032 0.41239303
000090 56 ad c1 3e 72 06 cd 3e 54 82 04 3f b0 9e ea 3e
       0.37827557 0.4004398 0.51761365 0.45824194
0000a0 6c 10 cd 3e 25 21 d5 3e 66 da cc 3e de 52 d5 3e
       0.4005159 0.4162685 0.40010375 0.41664785
0000b0 3c 9a bf 3e 51 7a fb 3e 00 72 c4 3e 96 ea d5 3e
       0.3742236 0.49116758 0.38368225 0.41780537
0000c0 2d f1 c5 3e af b1 fa 3e 9c 7b d6 3e df f2 c7 3e
       0.38660565 0.48963687 0.4189118 0.39052483
0000d0 68 3e dc 3e ba 54 d3 3e e0 e2 ce 3e e5 a4 00 3f
       0.43016362 0.4127558 0.40407467 0.5025161
0000e0 1a ca e9 3e 41 7a e6 3e c1 d0 c9 3e ac 7b dc 3e
       0.45662004 0.45015147 0.3941708 0.43063104
0000f0 e1 d0 c3 3e 26 59 d1 3e 35 73 cc 3e 32 94 ed 3e
       0.382453 0.40888327 0.39931646 0.46402127

bn3.bias f4 [64]
000000 37 f2 b2 b8 57 6b 7e 38 a6 2c 9b 39 fe 92 d5 b7
       -8.5328174e-05 6.0658287e-05 0.0002959717 -2.5460027e-05
000010 fd 6c fc 38 48 8c 45 39 f6 ed d4 38 c6 c1 85 b9
       0.00012036597 0.00018839643 0.000101532714 -0.0002551211
000020 06 05 6b 39 cb 57 2e b7 fa 32 5a b9 fe 78 9e 39
       0.00022413218 -1.0391649e-05 -0.0002080909 0.00030226255
000030 16 db a2 39 af 9e e9 38 52 54 37 39 e5 3b 1f 39
       0.0003106228 0.00011139863 0.00017483652 0.00015185734
000040 06 ca 39 38 48 5e 8f b7 00 bc b1 b8 7b c0 87 b8
       4.4295586e-05 -1.7090832e-05 -8.4750354e-05 -6.473154e-05
000050 c4 82 18 37 31 69 c2 b8 07 28 15 39 8e 96 8e b8
       9.090352e-06 -9.270234e-05 0.00014224659 -6.799131e-05
000060 5a 9b f4 39 22 f9 6d b8 52 0b 5c ba 3b 82 77 b8
       0.00046655053 -5.6737226e-05 -0.0008394021 -5.9010676e-05
000070 b9 47 6f 39 e1 6e be b8 99 76 12 39 60 2a 65 39
       0.00022819535 -9.080559e-05 0.00013967826 0.00021854928
000080 0f b4 eb 38 3a 8e 51 39 1b d5 a6 37 ad 73 06 38
       0.00011239212 0.00019984777 1.9887977e-05 3.205582e-05
000090 a7 bf b8 b8 d4 04 19 39 1e 4c 97 39 ef dc e5 38
       -8.809502e-05 0.00014593016 0.00028857676 0.00010960723
0000a0 e1 44 14 39 31 e5 b8 39 cc c5 de b6 bf 05 25 39
       0.0001414004 0.00035265976 -6.639142e-06 0.00015737767
0000b0 e3 eb 6b b8 7b 56 d4 39 13 0a ac 39 db 1d 63 39
       -5.6248053e-05 0.00040500224 0.00032813902 0.00021659529
0000c0 1c 97 a3 38 32 b9 e2 b8 41 19 bd 39 8d cb 86 38
       7.800592e-05 -0.00010811015 0.00036067705 6.427532e-05
0000d0 91 80 0d b9 00 88 14 37 c1 d1 99 b9 81 0a a4 39
       -0.00013494703 8.853152e-06 -0.00029338713 0.00031288344
0000e0 f9 fa 0d 37 c9 0d 55 39 66 48 3e 39 7a 3d b1 b9
       8.462689e-06 0.00020318398 0.00018146783 -0.00033805874
0000f0 7a 38 68 b8 eb c0 d9 b8 d3 cd d7 38 18 f3 ba b7
       -5.536571e-05 -0.000103833 0.00010290337 -2.2286127e-05

bn3.running_mean f4 [64]
000000 12 2b f0 bb 41 0c ce 3b 7d d4 32 3c 2b 1d 8c bb
       -0.007329353 0.006288082 0.010914919 -0.004275938
000010 1f 38 67 3c d4 9d 1f 3c 97 21 36 3c f7 79 1d bb
       0.014112501 0.009742219 0.011116407 -0.0024028996
000020 32 62 00 3c 33 31 0b 3b 37 f9 17 bc b3 4d 7d 3c
       0.007835912 0.0021239042 -0.009275726 0.0154604195
000030 2f 50 41 3c 8c 5c a8 3c bb 9a 35 3c 15 4e 2a 3c
       0.011798902 0.020551942 0.011084254 0.010394593
000040 52 db 67 3c 16 fe e8 bb 92 2f bf bb 64 ce 93 bb
       0.014151411 -0.0071103675 -0.0058345282 -0.0045106877
000050 db 91 fb 3b 00 60 38 3c e2 e8 70 3c 76 24 81 bb
       0.0076772994 0.011253357 0.014703961 -0.003941114
000060 dd f2 6c 3c 7f ad d2 bb 8f d7 9f bb 72 b3 d0 bb
       0.0144622 -0.0064293738 -0.0048779915 -0.006369048
000070 0e 2b 8d 3c 8a c5 4e 3b 0f f2 46 3c dd 29 dd 3c
       0.017232444 0.0031550848 0.012142672 0.026997501
000080 c0 bf f0 3b a3 e3 7a 3c 1f 37 b0 3b 44 60 0b 3c
       0.007347077 0.015313062 0.0053776647 0.008506838
000090 99 73 a8 bb 2f 54 83 3c 4d 97 01 3d 07 8d 90 3c
       -0.0051407334 0.016031353 0.031638432 0.017645372
0000a0 ce 68 30 3c b1 9d 87 3c 2a 73 5d 3b f6 17 9a 3c
       0.010767175 0.016554685 0.0033790567 0.018810254
0000b0 e3 24 0c 3b 6f 34 ca 3c 0e 80 06 3c 4f 23 fa 3c
       0.002138429 0.024683205 0.008209242 0.030534415
0000c0 57 a2 e9 3b ee c9 84 bc 4f 21 80 3c d2 62 81 3c
       0.007129948 -0.016209569 0.015640883 0.015794192
0000d0 bf 60 0e 3c ec 76 bf 3b 27 f4 24 3b 6e 52 a3 3c
       0.008690058 0.005843034 0.002516994 0.019936766
0000e0 b8 0e 2e 3c 49 27 93 3c 7c 06 18 3c 7d 2f 9a bb
       0.010623626 0.017963069 0.00927889 -0.004705368
0000f0 d0 ab 65 3a e8 99 87 b9 84 46 65 3c ab 36 a1 bc
       0.0008761259 -0.00025863876 0.013993863 -0.019679388

bn3.running_var f4 [64]
000000 bf 98 01 3a 31 17 0a 39 e4 79 09 3a e8 1e 25 38
       0.00049437204 0.00013169345 0.00052442984 3.936785e-05
000010 da 23 8e 3a c5 d3 95 39 b0 3c 16 3a 4a 04 c8 3a
       0.0010844425 0.00028577275 0.0005731089 0.0015260067
000020 d8 84 6a 39 eb ab 75 39 26 b2 f8 39 e6 c1 52 3a
       0.00022365467 0.00023429065 0.00047434977 0.00080397574
000030 77 06 13 3a 5b e3 16 3b af ca af 39 29 78 f4 39
       0.00056085683 0.0023023698 0.00033529612 0.00046628833
000040 eb 80 7a 3a 72 79 90 39 b9 44 8d 39 a7 9b 04 39
       0.00095559534 0.00027556304 0.00026944818 0.00012646486
000050 b9 6a d2 39 fe b8 3f 3a bb 88 61 3a 46 b5 df 38
       0.00040133836 0.0007313638 0.0008603443 0.000106672334
000060 cd 2b 24 3a bc 2c 12 39 8f 07 3b 3a 06 06 88 39
       0.00062626303 0.0001394031 0.000713461 0.0002594443
000070 b5 8f 85 3a 8d 95 18 3a e0 80 1f 3a 82 3e 56 3b
       0.0010189923 0.00058206246 0.00060845725 0.0032691066
000080 54 d8 98 39 4a a1 96 3a 76 06 0a 39 a0 70 f1 39
       0.00029152876 0.001149216 0.00013163112 0.00046051014
000090 79 bc 8c 38 8d b1 40 3a 14 e1 6a 3b e8 da 36 3b
       6.710826e-05 0.0007350676 0.0035839723 0.0027901474
0000a0 66 17 44 3a fa c6 5a 3a cd eb cb 38 bd 79 ea 3a
       0.0007480293 0.000834569 9.7237156e-05 0.0017889064
0000b0 7e d6 a3 38 c2 72 11 3b ad a9 6c 39 cd 42 53 3b
       7.812398e-05 0.0022193645 0.00022569923 0.0032235861
0000c0 f8 d4 7e 39 02 e8 34 3b ec a9 38 3a 9e 95 60 3a
       0.00024302665 0.0027604108 0.00070443633 0.00085672166
0000d0 eb 46 8b 3a 20 a4 99 39 3b 67 d1 39 61 d1 b7 3a
       0.0010625994 0.00029304717 0.000399405 0.0014024192
0000e0 a3 c2 01 3a 06 13 ad 3a e6 62 6e 39 cd fb 39 39
       0.00049499626 0.0013204522 0.00022734291 0.00017736778
0000f0 4f 6f 04 39 ef 0d b9 39 da 05 b5 3a cb de ef 3a
       0.00012629967 0.0003529633 0.0013810948 0.001830065

conv4.weight f4 [128, 64, 3, 3]
000000 19 bd 16 b8 75 c3 78 36 1e d1 67 b8 51 86 59 b9
       -3.5938898e-05 3.706865e-06 -5.5269447e-05 -0.0002074477
000010 cb fc 57 b8 14 f1 91 b8 48 45 42 b9 b6 d8 e6 b8
       -5.1495426e-05 -6.959043e-05 -0.00018527091 -0.0001100762
000020 63 b0 16 b9 47 2d c7 39 b1 fc 61 3a 41 03 d4 39
       -0.00014370824 0.00037989972 0.0008620723 0.00040438215
000030 db d3 f3 39 19 bd b5 38 b0 37 2f 39 1b b7 18 ba
       0.00046506416 8.665975e-05 0.00016710046 -0.00058256247
000040 a3 38 81 38 a2 be 18 39 02 1a ef b7 a2 4f 51 3b
       6.161749e-05 0.00014566866 -2.8503131e-05 0.0031938334
000050 78 71 52 35 01 4f 0f bb 7c e9 c6 3a 49 89 2a ba
       7.8396215e-07 -0.0021867158 0.0015175785 -0.00065054424
000060 3f d9 84 39 79 93 a5 39 9e 9c 13 ba ad a0 7c b8
       0.00025338863 0.00031581128 -0.0005630943 -6.0231123e-05
000070 51 dc 54 37 74 3d 4d 38 00 b8 b6 b8 d3 1e ec 38
       1.2687481e-05 4.893304e-05 -8.712709e-05 0.000112590984
000080 62 78 fc 36 bb d2 7f b8 76 f6 1f b8 60 e3 4d 37
       7.5241996e-06 -6.0992996e-05 -3.813809e-05 1.2271892e-05
000090 9f 8e 68 3a b6 98 33 39 ac 2f e2 b7 66 1e 31 3b
       0.000887135 0.0001712766 -2.6963498e-05 0.0027026176
0000a0 ce ec 1e bb 44 62 90 38 16 cd 09 3a ee 3e 13 39
       -0.0024250033 6.8847585e-05 0.00052566954 0.00014042456
0000b0 6c 4f aa b7 b7 f2 03 39 cd db e6 b8 23 87 49 38
       -2.0302563e-05 0.00012583552 -0.00011008196 4.804799e-05
0000c0 3e bd 3e 39 db cd 25 38 a3 58 a3 38 74 c4 ac 39
       0.0001819031 3.9530783e-05 7.7889556e-05 0.00032952765
0000d0 6c 57 26 39 00 d2 8e b8 ad e9 c9 39 b8 26 26 39
       0.00015863561 -6.810203e-05 0.0003851181 0.00015845418
0000e0 a5 07 41 39 d6 87 1d 3a 77 17 67 b7 23 a0 a5 38
       0.00018408762 0.0006009316 -1.3774136e-05 7.897641e-05
0000f0 3b 26 9d 39 4a 4a a3 37 e6 3c 1f 36 79 15 ac 3a
       0.00029973857 1.9465708e-05 2.3728294e-06 0.0013128958
000100 a4 de cc 39 51 11 82 b7 d6 da 73 3a 16 51 a3 39
       0.00039075792 -1.5505271e-05 0.00093023235 0.00031150196
000110 d8 c2 14 b9 41 09 ed b8 40 7a 0b ba 33 a9 b0 38
       -0.00014186965 -0.00011302764 -0.0005320646 8.42385e-05
000120 26 62 f4 39 fd 98 ee 39 09 89 8a 39 20 50 06 3a
       0.00046612433 0.00045508883 0.0002642351 0.0005123634
000130 60 e1 38 39 97 ee 0c 39 3c 52 88 39 6f 1f 33 39
       0.00017631566 0.00013440322 0.0002600121 0.0001708248
000140 46 63 90 38 94 91 1a 39 b8 dd cc b8 58 7d 9b 38
       6.884946e-05 0.00014740817 -9.768776e-05 7.414323e-05
000150 a1 25 be 38 eb 99 a1 39 83 bd 12 38 7d 18 aa 39
       9.066915e-05 0.0003082299 3.498561e-05 0.00032443172
000160 4b 3e 33 39 bb e4 04 38 19 30 ce bb 33 ca 96 bb
       0.00017093976 3.1684274e-05 -0.006292355 -0.0046017407
000170 e4 53 85 bb 00 5c 62 bb 72 2e 85 3b e6 ca d6 bb
       -0.0040688384 -0.00345397 0.0040643746 -0.006554949
000180 6b 7c 57 b9 8b b6 f1 ba b8 90 75 bb 76 ea 39 3b
       -0.00020550347 -0.0018441243 -0.0037470292 0.002836851
000190 a3 f8 4b 3a 29 f0 28 bb f4 5d 65 ba 7a c7 36 bb
       0.0007780885 -0.0025777912 -0.0008749657 -0.0027889893
0001a0 72 57 df 3b 70 b6 00 bb d5 74 65 ba 1a 6b 5c bb
       0.006815844 -0.0019639991 -0.0008753066 -0.0033633173
0001b0 11 18 63 ba b5 a0 86 3b ee e4 43 b8 91 70 b5 3b
       -0.0008662949 0.0041085132 -4.670483e-05 0.0055371006
0001c0 81 27 1b ba ea a5 d4 3a 14 83 ee b9 cf 0e 92 3a
       -0.00059186673 0.0016223763 -0.00045492558 0.0011143329
0001d0 26 38 e7 ba a7 26 82 b9 0e 3d 81 38 6e 72 39 b8
       -0.0017640635 -0.0002482433 6.162572e-05 -4.4214008e-05
0001e0 8a bb 52 39 73 da d0 b8 34 1c ee 38 11 c1 7e 39
       0.00020097024 -9.958902e-05 0.000113539776 0.0002429525
0001f0 6b b8 ff 37 27 c3 19 b9 be 6c 38 39 e1 83 59 39
       3.0484245e-05 -0.00014663917 0.00017588117 0.00020743861
000200 f8 e0 be 3a 95 f8 a9 3a 0b a9 0e 3a 2d 65 97 3a
       0.0014562896 0.001296776 0.00054420595 0.0011550538
000210 77 80 b7 3a d8 1f a9 38 48 1e dc b8 16 04 a5 bb
       0.0014000077 8.064479e-05 -0.00010496058 -0.0050358875
000220 dc 1f bf 3b ba 00 14 bc 5a 32 d3 bb 14 e3 28 bc
       0.0058326554 -0.009033376 -0.0064452114 -0.010308046
000230 1f e3 77 3b 2c e7 07 bb 68 bc 18 3c 07 0d 57 3b
       0.0037824584 -0.0020737154 0.009322263 0.0032814161
000240 6e f2 a4 3a 05 8b 97 ba 66 46 8d b9 85 8f 1e 3b
       0.0012584457 -0.0011561817 -0.00026946067 0.002419443
000250 91 67 47 ba d0 a9 0a 3a d8 63 f8 b8 03 f8 95 39
       -0.000760668 0.0005289586 -0.00011844159 0.00028604278
000260 af c1 dc 39 df 34 c3 b8 7a f0 98 b7 12 c2 9a 38
       0.00042105975 -9.3081726e-05 -1.8231793e-05 7.379441e-05
000270 6d 2d 0b b8 62 5f 60 b9 0e 9c ba 37 cd 27 a2 b7
       -3.318249e-05 -0.00021397838 2.2245596e-05 -1.9330439e-05
000280 4c 31 90 37 1e 86 a6 38 84 0c a2 b8 09 1a b8 b6
       1.7189093e-05 7.940478e-05 -7.727093e-05 -5.486658e-06
000290 1f dc 34 b7 83 02 c4 b8 e4 f0 d6 b8 da ba e9 b6
       -1.0780087e-05 -9.346476e-05 -0.000102491846 -6.9656935e-06
0002a0 a0 27 c9 b8 02 e2 ab b8 ca 2d f7 37 4d dd ad b9
       -9.5918076e-05 -8.196013e-05 2.9466017e-05 -0.00033162013
0002b0 d9 24 c7 b9 5c 13 d0 b8 f6 d9 08 b9 e3 6f 96 37
       -0.0003798369 -9.921819e-05 -0.00013051167 1.7933495e-05
0002c0 7d 90 c2 38 6b 8f 98 b8 0f 0f 76 b8 38 68 94 37
       9.277554e-05 -7.2746385e-05 -5.8664995e-05 1.7691505e-05
0002d0 23 47 30 bb 28 28 b9 3a 8c 3e d4 b9 40 0a 41 3a
       -0.002689787 0.0014126347 -0.00040482392 0.0007363893
0002e0 ce 44 6c 39 cb 8e d0 b8 32 34 d1 b6 fd 04 31 39
       0.00022532346 -9.94481e-05 -6.2347617e-06 0.00016881894
0002f0 d6 6f 07 3a 3e 95 54 39 2a f1 9d 3a 28 d2 08 3b
       0.0005166506 0.00020273493 0.0012050022 0.0020877216
000300 b2 6e af 39 8a 23 30 ba 49 d5 b9 38 cc 5e 91 3a
       0.00033461076 -0.0006719163 8.861215e-05 0.0011090874
000310 62 8b 9c 39 f5 2a d8 b9 11 82 06 3b f2 fd 11 bb
       0.00029858487 -0.00041230736 0.0020524303 -0.0022276607
000320 20 d9 e5 bb 3b d1 7f 3a ae bd ec 3b 12 a0 6b 3b
       -0.0070144087 0.0009758656 0.00722476 0.0035953564
000330 d4 bc 00 3c f4 e9 4b bb c5 2a 52 3b 85 99 d6 3a
       0.00785752 -0.0031114789 0.003206895 0.0016372657
000340 3e f2 77 b9 a6 62 57 b9 f6 4e 1c b9 6b 98 98 39
       -0.00023645998 -0.00020540747 -0.00014906735 0.0002910526
000350 f3 83 e6 37 04 2c aa 39 9d b3 da 38 28 8e 1e b9
       2.747958e-05 0.0003245772 0.000104285056 -0.00015121012
000360 f0 93 05 bb a0 35 df bb 3e 4d 44 ba bc d5 1b 3c
       -0.0020382367 -0.0068118125 -0.00074883166 0.009511407
000370 60 f6 de 3b 6c 01 24 39 61 10 a6 39 fb f4 54 b8
       0.0068042725 0.00015640788 0.0003167419 -5.0772895e-05
000380 d0 36 3c 3b ab db 93 b8 83 cd 19 b8 6b 7d cd 37
       0.0028719194 -7.0504226e-05 -3.666944e-05 2.4496307e-05
000390 6e 84 17 39 63 63 f8 b8 3a 1f fb b7 8e ba ab b8
       0.00014449816 -0.00011844074 -2.9936073e-05 -8.188664e-05
0003a0 f2 1d bb b9 f8 7a a7 37 c7 41 6b ba 63 b3 5f bb
       -0.0003568973 1.9965213e-05 -0.000897434 -0.0034134022
0003b0 73 a6 99 3a 89 6a ca 3b f9 8c 3b bb 8d e9 39 3a
       0.0011722579 0.0061772508 -0.0028617962 0.0007091992
0003c0 1a c0 04 3c d9 e0 36 bb 4c 25 6d bb e0 22 18 38
       0.008102441 -0.0027905016 -0.003618556 3.6272104e-05
0003d0 e2 3f d7 b7 7f 3c 7d b7 7c 16 75 b8 4b 3a 2b b8
       -2.5659745e-05 -1.50940605e-05 -5.8433492e-05 -4.0823867e-05
0003e0 4b 8e d0 37 87 79 95 b8 ba 1d 3a 38 70 26 35 38
       2.4861793e-05 -7.12751e-05 4.437354e-05 4.318956e-05
0003f0 b6 8d 10 bc 4b 6e b1 3a 10 3a 54 bb c8 c8 a6 3a
       -0.008822849 0.0013536898 -0.003238324 0.0012724632

conv4.bias f4 [128]
000000 f3 3b 8a 30 31 82 ae 30 1e e0 10 31 86 d0 0b b2
       1.005786e-09 1.2697169e-09 2.1082154e-09 -8.138278e-09
000010 1f 2e 01 b2 4c 83 ff 31 7b 6b 74 b1 ce 75 a8 b1
       -7.519275e-09 7.4364035e-09 -3.5567769e-09 -4.9028364e-09
000020 25 ae 10 32 70 e2 af 30 dc 9d a5 31 30 de 52 b1
       8.421499e-09 1.2797283e-09 4.8200786e-09 -3.068532e-09
000030 5f 33 ed b1 39 f6 4b b0 31 b5 a8 b1 b9 47 99 31
       -6.903448e-09 -7.4200873e-10 -4.9100426e-09 4.46104e-09
000040 e6 db 18 b1 de fc b7 b0 68 23 ab 32 d2 3d db b1
       -2.224391e-09 -1.3386872e-09 1.9923121e-08 -6.380767e-09
000050 00 a9 fa b2 67 4d 06 b2 e8 2e d4 31 a1 04 a4 b0
       -2.9180683e-08 -7.817426e-09 6.1753447e-09 -1.1933886e-09
000060 22 52 06 b2 39 43 d0 b1 c4 c2 c8 b1 f9 45 60 31
       -7.818501e-09 -6.061239e-09 -5.8429084e-09 3.2636065e-09
000070 aa ad a7 b1 f0 38 a5 31 4b f7 a3 b1 5d ed ad 32
       -4.880083e-09 4.808605e-09 -4.7720383e-09 2.0247791e-08
000080 3d c3 a1 2f 33 2e 76 31 60 c0 6b b0 5f df af 31
       2.9424455e-10 3.5823973e-09 -8.5765883e-10 5.1185647e-09
000090 d3 b5 32 32 f7 13 f9 31 c1 ee 69 31 ba a4 af b1
       1.0402306e-08 7.2491235e-09 3.4041678e-09 -5.1118976e-09
0000a0 74 b8 0e b3 a7 6c 88 32 05 eb e5 b0 2e 44 1a b1
       -3.322971e-08 1.5881893e-08 -1.672874e-09 -2.2448705e-09
0000b0 50 a8 e8 31 ac 98 6e 32 44 f3 85 30 40 19 54 30
       6.7712236e-09 1.3888137e-08 9.746164e-10 7.7161033e-10
0000c0 25 c2 c2 30 8d 1d 50 2f 2e 93 ac b0 ef ac 2c 31
       1.4170537e-09 1.8927988e-10 -1.2556478e-09 2.5127596e-09
0000d0 de 72 4b b0 6e 88 9a ae b4 60 91 30 15 43 64 32
       -7.4014206e-10 -7.027344e-11 1.0577623e-09 1.3286599e-08
0000e0 e9 84 22 b1 6c e4 8f b1 89 2a 8d b1 ee 24 87 31
       -2.3649653e-09 -4.1878163e-09 -4.108476e-09 3.9332155e-09
0000f0 fd e9 0e 32 21 72 81 31 30 bb f7 31 c3 c6 30 b1
       8.318691e-09 3.767369e-09 7.209927e-09 -2.5724354e-09
000100 49 7d e2 30 0d fe c6 2f 5a 99 e4 2f bf 6a 8f b0
       1.6479272e-09 3.6196504e-10 4.158192e-10 -1.0434958e-09
000110 71 34 8c 2e bb 5c b1 b1 3a b6 ce 31 b6 64 35 ae
       6.3757784e-11 -5.1619202e-09 6.016106e-09 -4.1244085e-11
000120 f1 4c 4d af 52 a9 d7 b1 4e 69 d3 31 62 b9 ad b2
       -1.8671976e-10 -6.276573e-09 6.15288e-09 -2.0224153e-08
000130 85 10 17 b1 a4 46 81 2f c2 1b 6e 32 7c bf ac 30
       -2.1982782e-09 2.3515156e-10 1.3859735e-08 1.256907e-09
000140 93 81 9a 30 3d 92 5f b0 2c 69 88 32 c2 97 03 32
       1.1241802e-09 -8.1334744e-10 1.588031e-08 7.659709e-09
000150 e9 f8 cb 31 8f 06 c9 30 9d 6e b0 b1 9c 2b 86 b1
       5.9363754e-09 1.4626539e-09 -5.1348494e-09 -3.904871e-09
000160 f1 c4 17 31 e4 6a c8 30 4a da 4f 32 f4 44 37 31
       2.208534e-09 1.4582295e-09 1.2098619e-08 2.66692e-09
000170 31 01 5a b2 ce f3 27 31 f7 14 05 b2 b6 74 f1 30
       -1.2689541e-08 2.4440285e-09 -7.746386e-09 1.7568229e-09
000180 76 81 a5 b0 e6 96 3b b0 14 89 35 b1 3a 54 54 b0
       -1.2042125e-09 -6.8244643e-10 -2.6416886e-09 -7.7244844e-10
000190 cf bf f9 31 cf 31 3f b1 55 b4 7f 30 a5 b8 6f 31
       7.26866e-09 -2.782247e-09 9.3024727e-10 3.4884036e-09
0001a0 78 eb e5 b2 d6 33 0f b0 10 e2 ae b1 f0 f4 11 af
       -2.6766187e-08 -5.209676e-10 -5.089767e-09 -1.3274692e-10
0001b0 6e 80 f8 af d5 fb af b0 05 5f 4f 31 8d 6f b3 2e
       -4.5202192e-10 -1.2804501e-09 3.0176477e-09 8.159793e-11
0001c0 5b ff ad 31 dc 4c 5c 32 97 84 59 b1 34 c8 e4 32
       5.0639932e-09 1.2823161e-08 -3.1653025e-09 2.6633735e-08
0001d0 58 8b 5f 32 e5 c1 ac b1 0d c4 bc b0 7c f1 a1 30
       1.30119915e-08 -5.027902e-09 -1.3734521e-09 1.1782926e-09
0001e0 ef 13 e5 b1 0e c8 bc ae ab 39 93 af f9 fc a7 b0
       -6.6670434e-09 -8.584787e-11 -2.678012e-10 -1.2222748e-09
0001f0 08 aa 97 b1 cc ca 52 32 70 f1 f3 31 e0 76 a0 af
       -4.4140087e-09 1.22697195e-08 7.099679e-09 -2.9188296e-10
